saved_model_schema_version: 1
meta_graphs {
  meta_info_def {
    stripped_op_list {
      op {
        name: "Add"
        input_arg {
          name: "x"
          type_attr: "T"
        }
        input_arg {
          name: "y"
          type_attr: "T"
        }
        output_arg {
          name: "z"
          type_attr: "T"
        }
        attr {
          name: "T"
          type: "type"
          allowed_values {
            list {
              type: DT_BFLOAT16
              type: DT_HALF
              type: DT_FLOAT
              type: DT_DOUBLE
              type: DT_UINT8
              type: DT_INT8
              type: DT_INT16
              type: DT_INT32
              type: DT_INT64
              type: DT_COMPLEX64
              type: DT_COMPLEX128
              type: DT_STRING
            }
          }
        }
      }
      op {
        name: "AddN"
        input_arg {
          name: "inputs"
          type_attr: "T"
          number_attr: "N"
        }
        output_arg {
          name: "sum"
          type_attr: "T"
        }
        attr {
          name: "N"
          type: "int"
          has_minimum: true
          minimum: 1
        }
        attr {
          name: "T"
          type: "type"
          allowed_values {
            list {
              type: DT_FLOAT
              type: DT_DOUBLE
              type: DT_INT32
              type: DT_UINT8
              type: DT_INT16
              type: DT_INT8
              type: DT_COMPLEX64
              type: DT_INT64
              type: DT_QINT8
              type: DT_QUINT8
              type: DT_QINT32
              type: DT_BFLOAT16
              type: DT_UINT16
              type: DT_COMPLEX128
              type: DT_HALF
              type: DT_UINT32
              type: DT_UINT64
              type: DT_VARIANT
            }
          }
        }
        is_aggregate: true
        is_commutative: true
      }
      op {
        name: "ArgMax"
        input_arg {
          name: "input"
          type_attr: "T"
        }
        input_arg {
          name: "dimension"
          type_attr: "Tidx"
        }
        output_arg {
          name: "output"
          type_attr: "output_type"
        }
        attr {
          name: "T"
          type: "type"
          allowed_values {
            list {
              type: DT_FLOAT
              type: DT_DOUBLE
              type: DT_INT32
              type: DT_UINT8
              type: DT_INT16
              type: DT_INT8
              type: DT_COMPLEX64
              type: DT_INT64
              type: DT_QINT8
              type: DT_QUINT8
              type: DT_QINT32
              type: DT_BFLOAT16
              type: DT_UINT16
              type: DT_COMPLEX128
              type: DT_HALF
              type: DT_UINT32
              type: DT_UINT64
            }
          }
        }
        attr {
          name: "Tidx"
          type: "type"
          default_value {
            type: DT_INT32
          }
          allowed_values {
            list {
              type: DT_INT32
              type: DT_INT64
            }
          }
        }
        attr {
          name: "output_type"
          type: "type"
          default_value {
            type: DT_INT64
          }
          allowed_values {
            list {
              type: DT_INT32
              type: DT_INT64
            }
          }
        }
      }
      op {
        name: "Assert"
        input_arg {
          name: "condition"
          type: DT_BOOL
        }
        input_arg {
          name: "data"
          type_list_attr: "T"
        }
        attr {
          name: "T"
          type: "list(type)"
          has_minimum: true
          minimum: 1
        }
        attr {
          name: "summarize"
          type: "int"
          default_value {
            i: 3
          }
        }
        is_stateful: true
      }
      op {
        name: "AssignAddVariableOp"
        input_arg {
          name: "resource"
          type: DT_RESOURCE
        }
        input_arg {
          name: "value"
          type_attr: "dtype"
        }
        attr {
          name: "dtype"
          type: "type"
        }
        is_stateful: true
      }
      op {
        name: "AssignVariableOp"
        input_arg {
          name: "resource"
          type: DT_RESOURCE
        }
        input_arg {
          name: "value"
          type_attr: "dtype"
        }
        attr {
          name: "dtype"
          type: "type"
        }
        is_stateful: true
      }
      op {
        name: "BiasAdd"
        input_arg {
          name: "value"
          type_attr: "T"
        }
        input_arg {
          name: "bias"
          type_attr: "T"
        }
        output_arg {
          name: "output"
          type_attr: "T"
        }
        attr {
          name: "T"
          type: "type"
          allowed_values {
            list {
              type: DT_FLOAT
              type: DT_DOUBLE
              type: DT_INT32
              type: DT_UINT8
              type: DT_INT16
              type: DT_INT8
              type: DT_COMPLEX64
              type: DT_INT64
              type: DT_QINT8
              type: DT_QUINT8
              type: DT_QINT32
              type: DT_BFLOAT16
              type: DT_UINT16
              type: DT_COMPLEX128
              type: DT_HALF
              type: DT_UINT32
              type: DT_UINT64
            }
          }
        }
        attr {
          name: "data_format"
          type: "string"
          default_value {
            s: "NHWC"
          }
          allowed_values {
            list {
              s: "NHWC"
              s: "NCHW"
            }
          }
        }
      }
      op {
        name: "BiasAddGrad"
        input_arg {
          name: "out_backprop"
          type_attr: "T"
        }
        output_arg {
          name: "output"
          type_attr: "T"
        }
        attr {
          name: "T"
          type: "type"
          allowed_values {
            list {
              type: DT_FLOAT
              type: DT_DOUBLE
              type: DT_INT32
              type: DT_UINT8
              type: DT_INT16
              type: DT_INT8
              type: DT_COMPLEX64
              type: DT_INT64
              type: DT_QINT8
              type: DT_QUINT8
              type: DT_QINT32
              type: DT_BFLOAT16
              type: DT_UINT16
              type: DT_COMPLEX128
              type: DT_HALF
              type: DT_UINT32
              type: DT_UINT64
            }
          }
        }
        attr {
          name: "data_format"
          type: "string"
          default_value {
            s: "NHWC"
          }
          allowed_values {
            list {
              s: "NHWC"
              s: "NCHW"
            }
          }
        }
      }
      op {
        name: "BroadcastGradientArgs"
        input_arg {
          name: "s0"
          type_attr: "T"
        }
        input_arg {
          name: "s1"
          type_attr: "T"
        }
        output_arg {
          name: "r0"
          type_attr: "T"
        }
        output_arg {
          name: "r1"
          type_attr: "T"
        }
        attr {
          name: "T"
          type: "type"
          default_value {
            type: DT_INT32
          }
          allowed_values {
            list {
              type: DT_INT32
              type: DT_INT64
            }
          }
        }
      }
      op {
        name: "Cast"
        input_arg {
          name: "x"
          type_attr: "SrcT"
        }
        output_arg {
          name: "y"
          type_attr: "DstT"
        }
        attr {
          name: "SrcT"
          type: "type"
        }
        attr {
          name: "DstT"
          type: "type"
        }
        attr {
          name: "Truncate"
          type: "bool"
          default_value {
            b: false
          }
        }
      }
      op {
        name: "ConcatOffset"
        input_arg {
          name: "concat_dim"
          type: DT_INT32
        }
        input_arg {
          name: "shape"
          type: DT_INT32
          number_attr: "N"
        }
        output_arg {
          name: "offset"
          type: DT_INT32
          number_attr: "N"
        }
        attr {
          name: "N"
          type: "int"
          has_minimum: true
          minimum: 2
        }
      }
      op {
        name: "ConcatV2"
        input_arg {
          name: "values"
          type_attr: "T"
          number_attr: "N"
        }
        input_arg {
          name: "axis"
          type_attr: "Tidx"
        }
        output_arg {
          name: "output"
          type_attr: "T"
        }
        attr {
          name: "N"
          type: "int"
          has_minimum: true
          minimum: 2
        }
        attr {
          name: "T"
          type: "type"
        }
        attr {
          name: "Tidx"
          type: "type"
          default_value {
            type: DT_INT32
          }
          allowed_values {
            list {
              type: DT_INT32
              type: DT_INT64
            }
          }
        }
      }
      op {
        name: "Const"
        output_arg {
          name: "output"
          type_attr: "dtype"
        }
        attr {
          name: "value"
          type: "tensor"
        }
        attr {
          name: "dtype"
          type: "type"
        }
      }
      op {
        name: "Conv2D"
        input_arg {
          name: "input"
          type_attr: "T"
        }
        input_arg {
          name: "filter"
          type_attr: "T"
        }
        output_arg {
          name: "output"
          type_attr: "T"
        }
        attr {
          name: "T"
          type: "type"
          allowed_values {
            list {
              type: DT_HALF
              type: DT_BFLOAT16
              type: DT_FLOAT
              type: DT_DOUBLE
            }
          }
        }
        attr {
          name: "strides"
          type: "list(int)"
        }
        attr {
          name: "use_cudnn_on_gpu"
          type: "bool"
          default_value {
            b: true
          }
        }
        attr {
          name: "padding"
          type: "string"
          allowed_values {
            list {
              s: "SAME"
              s: "VALID"
            }
          }
        }
        attr {
          name: "data_format"
          type: "string"
          default_value {
            s: "NHWC"
          }
          allowed_values {
            list {
              s: "NHWC"
              s: "NCHW"
            }
          }
        }
        attr {
          name: "dilations"
          type: "list(int)"
          default_value {
            list {
              i: 1
              i: 1
              i: 1
              i: 1
            }
          }
        }
      }
      op {
        name: "Conv2DBackpropFilter"
        input_arg {
          name: "input"
          type_attr: "T"
        }
        input_arg {
          name: "filter_sizes"
          type: DT_INT32
        }
        input_arg {
          name: "out_backprop"
          type_attr: "T"
        }
        output_arg {
          name: "output"
          type_attr: "T"
        }
        attr {
          name: "T"
          type: "type"
          allowed_values {
            list {
              type: DT_HALF
              type: DT_BFLOAT16
              type: DT_FLOAT
              type: DT_DOUBLE
            }
          }
        }
        attr {
          name: "strides"
          type: "list(int)"
        }
        attr {
          name: "use_cudnn_on_gpu"
          type: "bool"
          default_value {
            b: true
          }
        }
        attr {
          name: "padding"
          type: "string"
          allowed_values {
            list {
              s: "SAME"
              s: "VALID"
            }
          }
        }
        attr {
          name: "data_format"
          type: "string"
          default_value {
            s: "NHWC"
          }
          allowed_values {
            list {
              s: "NHWC"
              s: "NCHW"
            }
          }
        }
        attr {
          name: "dilations"
          type: "list(int)"
          default_value {
            list {
              i: 1
              i: 1
              i: 1
              i: 1
            }
          }
        }
      }
      op {
        name: "Conv2DBackpropInput"
        input_arg {
          name: "input_sizes"
          type: DT_INT32
        }
        input_arg {
          name: "filter"
          type_attr: "T"
        }
        input_arg {
          name: "out_backprop"
          type_attr: "T"
        }
        output_arg {
          name: "output"
          type_attr: "T"
        }
        attr {
          name: "T"
          type: "type"
          allowed_values {
            list {
              type: DT_HALF
              type: DT_BFLOAT16
              type: DT_FLOAT
              type: DT_DOUBLE
            }
          }
        }
        attr {
          name: "strides"
          type: "list(int)"
        }
        attr {
          name: "use_cudnn_on_gpu"
          type: "bool"
          default_value {
            b: true
          }
        }
        attr {
          name: "padding"
          type: "string"
          allowed_values {
            list {
              s: "SAME"
              s: "VALID"
            }
          }
        }
        attr {
          name: "data_format"
          type: "string"
          default_value {
            s: "NHWC"
          }
          allowed_values {
            list {
              s: "NHWC"
              s: "NCHW"
            }
          }
        }
        attr {
          name: "dilations"
          type: "list(int)"
          default_value {
            list {
              i: 1
              i: 1
              i: 1
              i: 1
            }
          }
        }
      }
      op {
        name: "DenseToDenseSetOperation"
        input_arg {
          name: "set1"
          type_attr: "T"
        }
        input_arg {
          name: "set2"
          type_attr: "T"
        }
        output_arg {
          name: "result_indices"
          type: DT_INT64
        }
        output_arg {
          name: "result_values"
          type_attr: "T"
        }
        output_arg {
          name: "result_shape"
          type: DT_INT64
        }
        attr {
          name: "set_operation"
          type: "string"
        }
        attr {
          name: "validate_indices"
          type: "bool"
          default_value {
            b: true
          }
        }
        attr {
          name: "T"
          type: "type"
          allowed_values {
            list {
              type: DT_INT8
              type: DT_INT16
              type: DT_INT32
              type: DT_INT64
              type: DT_UINT8
              type: DT_UINT16
              type: DT_STRING
            }
          }
        }
      }
      op {
        name: "DynamicStitch"
        input_arg {
          name: "indices"
          type: DT_INT32
          number_attr: "N"
        }
        input_arg {
          name: "data"
          type_attr: "T"
          number_attr: "N"
        }
        output_arg {
          name: "merged"
          type_attr: "T"
        }
        attr {
          name: "N"
          type: "int"
          has_minimum: true
          minimum: 1
        }
        attr {
          name: "T"
          type: "type"
        }
      }
      op {
        name: "Equal"
        input_arg {
          name: "x"
          type_attr: "T"
        }
        input_arg {
          name: "y"
          type_attr: "T"
        }
        output_arg {
          name: "z"
          type: DT_BOOL
        }
        attr {
          name: "T"
          type: "type"
          allowed_values {
            list {
              type: DT_BFLOAT16
              type: DT_HALF
              type: DT_FLOAT
              type: DT_DOUBLE
              type: DT_UINT8
              type: DT_INT8
              type: DT_INT16
              type: DT_INT32
              type: DT_INT64
              type: DT_COMPLEX64
              type: DT_QUINT8
              type: DT_QINT8
              type: DT_QINT32
              type: DT_STRING
              type: DT_BOOL
              type: DT_COMPLEX128
            }
          }
        }
        is_commutative: true
      }
      op {
        name: "ExpandDims"
        input_arg {
          name: "input"
          type_attr: "T"
        }
        input_arg {
          name: "dim"
          type_attr: "Tdim"
        }
        output_arg {
          name: "output"
          type_attr: "T"
        }
        attr {
          name: "T"
          type: "type"
        }
        attr {
          name: "Tdim"
          type: "type"
          default_value {
            type: DT_INT32
          }
          allowed_values {
            list {
              type: DT_INT32
              type: DT_INT64
            }
          }
        }
      }
      op {
        name: "Fill"
        input_arg {
          name: "dims"
          type_attr: "index_type"
        }
        input_arg {
          name: "value"
          type_attr: "T"
        }
        output_arg {
          name: "output"
          type_attr: "T"
        }
        attr {
          name: "T"
          type: "type"
        }
        attr {
          name: "index_type"
          type: "type"
          default_value {
            type: DT_INT32
          }
          allowed_values {
            list {
              type: DT_INT32
              type: DT_INT64
            }
          }
        }
      }
      op {
        name: "FloorDiv"
        input_arg {
          name: "x"
          type_attr: "T"
        }
        input_arg {
          name: "y"
          type_attr: "T"
        }
        output_arg {
          name: "z"
          type_attr: "T"
        }
        attr {
          name: "T"
          type: "type"
          allowed_values {
            list {
              type: DT_BFLOAT16
              type: DT_HALF
              type: DT_FLOAT
              type: DT_DOUBLE
              type: DT_UINT8
              type: DT_INT8
              type: DT_UINT16
              type: DT_INT16
              type: DT_INT32
              type: DT_INT64
              type: DT_COMPLEX64
              type: DT_COMPLEX128
            }
          }
        }
      }
      op {
        name: "FloorMod"
        input_arg {
          name: "x"
          type_attr: "T"
        }
        input_arg {
          name: "y"
          type_attr: "T"
        }
        output_arg {
          name: "z"
          type_attr: "T"
        }
        attr {
          name: "T"
          type: "type"
          allowed_values {
            list {
              type: DT_INT32
              type: DT_INT64
              type: DT_BFLOAT16
              type: DT_HALF
              type: DT_FLOAT
              type: DT_DOUBLE
            }
          }
        }
      }
      op {
        name: "Greater"
        input_arg {
          name: "x"
          type_attr: "T"
        }
        input_arg {
          name: "y"
          type_attr: "T"
        }
        output_arg {
          name: "z"
          type: DT_BOOL
        }
        attr {
          name: "T"
          type: "type"
          allowed_values {
            list {
              type: DT_FLOAT
              type: DT_DOUBLE
              type: DT_INT32
              type: DT_UINT8
              type: DT_INT16
              type: DT_INT8
              type: DT_INT64
              type: DT_BFLOAT16
              type: DT_UINT16
              type: DT_HALF
              type: DT_UINT32
              type: DT_UINT64
            }
          }
        }
      }
      op {
        name: "GreaterEqual"
        input_arg {
          name: "x"
          type_attr: "T"
        }
        input_arg {
          name: "y"
          type_attr: "T"
        }
        output_arg {
          name: "z"
          type: DT_BOOL
        }
        attr {
          name: "T"
          type: "type"
          allowed_values {
            list {
              type: DT_FLOAT
              type: DT_DOUBLE
              type: DT_INT32
              type: DT_UINT8
              type: DT_INT16
              type: DT_INT8
              type: DT_INT64
              type: DT_BFLOAT16
              type: DT_UINT16
              type: DT_HALF
              type: DT_UINT32
              type: DT_UINT64
            }
          }
        }
      }
      op {
        name: "Identity"
        input_arg {
          name: "input"
          type_attr: "T"
        }
        output_arg {
          name: "output"
          type_attr: "T"
        }
        attr {
          name: "T"
          type: "type"
        }
      }
      op {
        name: "LessEqual"
        input_arg {
          name: "x"
          type_attr: "T"
        }
        input_arg {
          name: "y"
          type_attr: "T"
        }
        output_arg {
          name: "z"
          type: DT_BOOL
        }
        attr {
          name: "T"
          type: "type"
          allowed_values {
            list {
              type: DT_FLOAT
              type: DT_DOUBLE
              type: DT_INT32
              type: DT_UINT8
              type: DT_INT16
              type: DT_INT8
              type: DT_INT64
              type: DT_BFLOAT16
              type: DT_UINT16
              type: DT_HALF
              type: DT_UINT32
              type: DT_UINT64
            }
          }
        }
      }
      op {
        name: "Log"
        input_arg {
          name: "x"
          type_attr: "T"
        }
        output_arg {
          name: "y"
          type_attr: "T"
        }
        attr {
          name: "T"
          type: "type"
          allowed_values {
            list {
              type: DT_BFLOAT16
              type: DT_HALF
              type: DT_FLOAT
              type: DT_DOUBLE
              type: DT_COMPLEX64
              type: DT_COMPLEX128
            }
          }
        }
      }
      op {
        name: "MatMul"
        input_arg {
          name: "a"
          type_attr: "T"
        }
        input_arg {
          name: "b"
          type_attr: "T"
        }
        output_arg {
          name: "product"
          type_attr: "T"
        }
        attr {
          name: "transpose_a"
          type: "bool"
          default_value {
            b: false
          }
        }
        attr {
          name: "transpose_b"
          type: "bool"
          default_value {
            b: false
          }
        }
        attr {
          name: "T"
          type: "type"
          allowed_values {
            list {
              type: DT_BFLOAT16
              type: DT_HALF
              type: DT_FLOAT
              type: DT_DOUBLE
              type: DT_INT32
              type: DT_COMPLEX64
              type: DT_COMPLEX128
            }
          }
        }
      }
      op {
        name: "MaxPool"
        input_arg {
          name: "input"
          type_attr: "T"
        }
        output_arg {
          name: "output"
          type_attr: "T"
        }
        attr {
          name: "T"
          type: "type"
          default_value {
            type: DT_FLOAT
          }
          allowed_values {
            list {
              type: DT_HALF
              type: DT_BFLOAT16
              type: DT_FLOAT
              type: DT_DOUBLE
              type: DT_INT32
              type: DT_INT64
              type: DT_UINT8
              type: DT_INT16
              type: DT_INT8
              type: DT_UINT16
              type: DT_QINT8
            }
          }
        }
        attr {
          name: "ksize"
          type: "list(int)"
          has_minimum: true
          minimum: 4
        }
        attr {
          name: "strides"
          type: "list(int)"
          has_minimum: true
          minimum: 4
        }
        attr {
          name: "padding"
          type: "string"
          allowed_values {
            list {
              s: "SAME"
              s: "VALID"
            }
          }
        }
        attr {
          name: "data_format"
          type: "string"
          default_value {
            s: "NHWC"
          }
          allowed_values {
            list {
              s: "NHWC"
              s: "NCHW"
              s: "NCHW_VECT_C"
            }
          }
        }
      }
      op {
        name: "MaxPoolGrad"
        input_arg {
          name: "orig_input"
          type_attr: "T"
        }
        input_arg {
          name: "orig_output"
          type_attr: "T"
        }
        input_arg {
          name: "grad"
          type_attr: "T"
        }
        output_arg {
          name: "output"
          type_attr: "T"
        }
        attr {
          name: "ksize"
          type: "list(int)"
          has_minimum: true
          minimum: 4
        }
        attr {
          name: "strides"
          type: "list(int)"
          has_minimum: true
          minimum: 4
        }
        attr {
          name: "padding"
          type: "string"
          allowed_values {
            list {
              s: "SAME"
              s: "VALID"
            }
          }
        }
        attr {
          name: "data_format"
          type: "string"
          default_value {
            s: "NHWC"
          }
          allowed_values {
            list {
              s: "NHWC"
              s: "NCHW"
            }
          }
        }
        attr {
          name: "T"
          type: "type"
          default_value {
            type: DT_FLOAT
          }
          allowed_values {
            list {
              type: DT_FLOAT
              type: DT_DOUBLE
              type: DT_INT32
              type: DT_UINT8
              type: DT_INT16
              type: DT_INT8
              type: DT_INT64
              type: DT_BFLOAT16
              type: DT_UINT16
              type: DT_HALF
              type: DT_UINT32
              type: DT_UINT64
            }
          }
        }
      }
      op {
        name: "Maximum"
        input_arg {
          name: "x"
          type_attr: "T"
        }
        input_arg {
          name: "y"
          type_attr: "T"
        }
        output_arg {
          name: "z"
          type_attr: "T"
        }
        attr {
          name: "T"
          type: "type"
          allowed_values {
            list {
              type: DT_BFLOAT16
              type: DT_HALF
              type: DT_FLOAT
              type: DT_DOUBLE
              type: DT_INT32
              type: DT_INT64
            }
          }
        }
        is_commutative: true
      }
      op {
        name: "Mean"
        input_arg {
          name: "input"
          type_attr: "T"
        }
        input_arg {
          name: "reduction_indices"
          type_attr: "Tidx"
        }
        output_arg {
          name: "output"
          type_attr: "T"
        }
        attr {
          name: "keep_dims"
          type: "bool"
          default_value {
            b: false
          }
        }
        attr {
          name: "T"
          type: "type"
          allowed_values {
            list {
              type: DT_FLOAT
              type: DT_DOUBLE
              type: DT_INT32
              type: DT_UINT8
              type: DT_INT16
              type: DT_INT8
              type: DT_COMPLEX64
              type: DT_INT64
              type: DT_QINT8
              type: DT_QUINT8
              type: DT_QINT32
              type: DT_BFLOAT16
              type: DT_UINT16
              type: DT_COMPLEX128
              type: DT_HALF
              type: DT_UINT32
              type: DT_UINT64
            }
          }
        }
        attr {
          name: "Tidx"
          type: "type"
          default_value {
            type: DT_INT32
          }
          allowed_values {
            list {
              type: DT_INT32
              type: DT_INT64
            }
          }
        }
      }
      op {
        name: "Merge"
        input_arg {
          name: "inputs"
          type_attr: "T"
          number_attr: "N"
        }
        output_arg {
          name: "output"
          type_attr: "T"
        }
        output_arg {
          name: "value_index"
          type: DT_INT32
        }
        attr {
          name: "T"
          type: "type"
        }
        attr {
          name: "N"
          type: "int"
          has_minimum: true
          minimum: 1
        }
      }
      op {
        name: "MergeV2Checkpoints"
        input_arg {
          name: "checkpoint_prefixes"
          type: DT_STRING
        }
        input_arg {
          name: "destination_prefix"
          type: DT_STRING
        }
        attr {
          name: "delete_old_dirs"
          type: "bool"
          default_value {
            b: true
          }
        }
        is_stateful: true
      }
      op {
        name: "Minimum"
        input_arg {
          name: "x"
          type_attr: "T"
        }
        input_arg {
          name: "y"
          type_attr: "T"
        }
        output_arg {
          name: "z"
          type_attr: "T"
        }
        attr {
          name: "T"
          type: "type"
          allowed_values {
            list {
              type: DT_BFLOAT16
              type: DT_HALF
              type: DT_FLOAT
              type: DT_DOUBLE
              type: DT_INT32
              type: DT_INT64
            }
          }
        }
        is_commutative: true
      }
      op {
        name: "Mul"
        input_arg {
          name: "x"
          type_attr: "T"
        }
        input_arg {
          name: "y"
          type_attr: "T"
        }
        output_arg {
          name: "z"
          type_attr: "T"
        }
        attr {
          name: "T"
          type: "type"
          allowed_values {
            list {
              type: DT_BFLOAT16
              type: DT_HALF
              type: DT_FLOAT
              type: DT_DOUBLE
              type: DT_UINT8
              type: DT_INT8
              type: DT_UINT16
              type: DT_INT16
              type: DT_INT32
              type: DT_INT64
              type: DT_COMPLEX64
              type: DT_COMPLEX128
            }
          }
        }
        is_commutative: true
      }
      op {
        name: "Neg"
        input_arg {
          name: "x"
          type_attr: "T"
        }
        output_arg {
          name: "y"
          type_attr: "T"
        }
        attr {
          name: "T"
          type: "type"
          allowed_values {
            list {
              type: DT_BFLOAT16
              type: DT_HALF
              type: DT_FLOAT
              type: DT_DOUBLE
              type: DT_INT32
              type: DT_INT64
              type: DT_COMPLEX64
              type: DT_COMPLEX128
            }
          }
        }
      }
      op {
        name: "NoOp"
      }
      op {
        name: "Pack"
        input_arg {
          name: "values"
          type_attr: "T"
          number_attr: "N"
        }
        output_arg {
          name: "output"
          type_attr: "T"
        }
        attr {
          name: "N"
          type: "int"
          has_minimum: true
          minimum: 1
        }
        attr {
          name: "T"
          type: "type"
        }
        attr {
          name: "axis"
          type: "int"
          default_value {
            i: 0
          }
        }
      }
      op {
        name: "Placeholder"
        output_arg {
          name: "output"
          type_attr: "dtype"
        }
        attr {
          name: "dtype"
          type: "type"
        }
        attr {
          name: "shape"
          type: "shape"
          default_value {
            shape {
              unknown_rank: true
            }
          }
        }
      }
      op {
        name: "PlaceholderWithDefault"
        input_arg {
          name: "input"
          type_attr: "dtype"
        }
        output_arg {
          name: "output"
          type_attr: "dtype"
        }
        attr {
          name: "dtype"
          type: "type"
        }
        attr {
          name: "shape"
          type: "shape"
        }
      }
      op {
        name: "RandomUniform"
        input_arg {
          name: "shape"
          type_attr: "T"
        }
        output_arg {
          name: "output"
          type_attr: "dtype"
        }
        attr {
          name: "seed"
          type: "int"
          default_value {
            i: 0
          }
        }
        attr {
          name: "seed2"
          type: "int"
          default_value {
            i: 0
          }
        }
        attr {
          name: "dtype"
          type: "type"
          allowed_values {
            list {
              type: DT_HALF
              type: DT_BFLOAT16
              type: DT_FLOAT
              type: DT_DOUBLE
            }
          }
        }
        attr {
          name: "T"
          type: "type"
          allowed_values {
            list {
              type: DT_INT32
              type: DT_INT64
            }
          }
        }
        is_stateful: true
      }
      op {
        name: "Range"
        input_arg {
          name: "start"
          type_attr: "Tidx"
        }
        input_arg {
          name: "limit"
          type_attr: "Tidx"
        }
        input_arg {
          name: "delta"
          type_attr: "Tidx"
        }
        output_arg {
          name: "output"
          type_attr: "Tidx"
        }
        attr {
          name: "Tidx"
          type: "type"
          default_value {
            type: DT_INT32
          }
          allowed_values {
            list {
              type: DT_BFLOAT16
              type: DT_FLOAT
              type: DT_DOUBLE
              type: DT_INT32
              type: DT_INT64
            }
          }
        }
      }
      op {
        name: "ReadVariableOp"
        input_arg {
          name: "resource"
          type: DT_RESOURCE
        }
        output_arg {
          name: "value"
          type_attr: "dtype"
        }
        attr {
          name: "dtype"
          type: "type"
        }
        is_stateful: true
      }
      op {
        name: "RealDiv"
        input_arg {
          name: "x"
          type_attr: "T"
        }
        input_arg {
          name: "y"
          type_attr: "T"
        }
        output_arg {
          name: "z"
          type_attr: "T"
        }
        attr {
          name: "T"
          type: "type"
          allowed_values {
            list {
              type: DT_BFLOAT16
              type: DT_HALF
              type: DT_FLOAT
              type: DT_DOUBLE
              type: DT_UINT8
              type: DT_INT8
              type: DT_UINT16
              type: DT_INT16
              type: DT_INT32
              type: DT_INT64
              type: DT_COMPLEX64
              type: DT_COMPLEX128
            }
          }
        }
      }
      op {
        name: "Reciprocal"
        input_arg {
          name: "x"
          type_attr: "T"
        }
        output_arg {
          name: "y"
          type_attr: "T"
        }
        attr {
          name: "T"
          type: "type"
          allowed_values {
            list {
              type: DT_BFLOAT16
              type: DT_HALF
              type: DT_FLOAT
              type: DT_DOUBLE
              type: DT_INT32
              type: DT_INT64
              type: DT_COMPLEX64
              type: DT_COMPLEX128
            }
          }
        }
      }
      op {
        name: "Relu"
        input_arg {
          name: "features"
          type_attr: "T"
        }
        output_arg {
          name: "activations"
          type_attr: "T"
        }
        attr {
          name: "T"
          type: "type"
          allowed_values {
            list {
              type: DT_FLOAT
              type: DT_DOUBLE
              type: DT_INT32
              type: DT_UINT8
              type: DT_INT16
              type: DT_INT8
              type: DT_INT64
              type: DT_BFLOAT16
              type: DT_UINT16
              type: DT_HALF
              type: DT_UINT32
              type: DT_UINT64
              type: DT_QINT8
            }
          }
        }
      }
      op {
        name: "ReluGrad"
        input_arg {
          name: "gradients"
          type_attr: "T"
        }
        input_arg {
          name: "features"
          type_attr: "T"
        }
        output_arg {
          name: "backprops"
          type_attr: "T"
        }
        attr {
          name: "T"
          type: "type"
          allowed_values {
            list {
              type: DT_FLOAT
              type: DT_DOUBLE
              type: DT_INT32
              type: DT_UINT8
              type: DT_INT16
              type: DT_INT8
              type: DT_INT64
              type: DT_BFLOAT16
              type: DT_UINT16
              type: DT_HALF
              type: DT_UINT32
              type: DT_UINT64
            }
          }
        }
      }
      op {
        name: "Reshape"
        input_arg {
          name: "tensor"
          type_attr: "T"
        }
        input_arg {
          name: "shape"
          type_attr: "Tshape"
        }
        output_arg {
          name: "output"
          type_attr: "T"
        }
        attr {
          name: "T"
          type: "type"
        }
        attr {
          name: "Tshape"
          type: "type"
          default_value {
            type: DT_INT32
          }
          allowed_values {
            list {
              type: DT_INT32
              type: DT_INT64
            }
          }
        }
      }
      op {
        name: "RestoreV2"
        input_arg {
          name: "prefix"
          type: DT_STRING
        }
        input_arg {
          name: "tensor_names"
          type: DT_STRING
        }
        input_arg {
          name: "shape_and_slices"
          type: DT_STRING
        }
        output_arg {
          name: "tensors"
          type_list_attr: "dtypes"
        }
        attr {
          name: "dtypes"
          type: "list(type)"
          has_minimum: true
          minimum: 1
        }
        is_stateful: true
      }
      op {
        name: "SaveV2"
        input_arg {
          name: "prefix"
          type: DT_STRING
        }
        input_arg {
          name: "tensor_names"
          type: DT_STRING
        }
        input_arg {
          name: "shape_and_slices"
          type: DT_STRING
        }
        input_arg {
          name: "tensors"
          type_list_attr: "dtypes"
        }
        attr {
          name: "dtypes"
          type: "list(type)"
          has_minimum: true
          minimum: 1
        }
        is_stateful: true
      }
      op {
        name: "Select"
        input_arg {
          name: "condition"
          type: DT_BOOL
        }
        input_arg {
          name: "t"
          type_attr: "T"
        }
        input_arg {
          name: "e"
          type_attr: "T"
        }
        output_arg {
          name: "output"
          type_attr: "T"
        }
        attr {
          name: "T"
          type: "type"
        }
      }
      op {
        name: "Shape"
        input_arg {
          name: "input"
          type_attr: "T"
        }
        output_arg {
          name: "output"
          type_attr: "out_type"
        }
        attr {
          name: "T"
          type: "type"
        }
        attr {
          name: "out_type"
          type: "type"
          default_value {
            type: DT_INT32
          }
          allowed_values {
            list {
              type: DT_INT32
              type: DT_INT64
            }
          }
        }
      }
      op {
        name: "ShapeN"
        input_arg {
          name: "input"
          type_attr: "T"
          number_attr: "N"
        }
        output_arg {
          name: "output"
          type_attr: "out_type"
          number_attr: "N"
        }
        attr {
          name: "N"
          type: "int"
          has_minimum: true
          minimum: 1
        }
        attr {
          name: "T"
          type: "type"
        }
        attr {
          name: "out_type"
          type: "type"
          default_value {
            type: DT_INT32
          }
          allowed_values {
            list {
              type: DT_INT32
              type: DT_INT64
            }
          }
        }
      }
      op {
        name: "ShardedFilename"
        input_arg {
          name: "basename"
          type: DT_STRING
        }
        input_arg {
          name: "shard"
          type: DT_INT32
        }
        input_arg {
          name: "num_shards"
          type: DT_INT32
        }
        output_arg {
          name: "filename"
          type: DT_STRING
        }
      }
      op {
        name: "Size"
        input_arg {
          name: "input"
          type_attr: "T"
        }
        output_arg {
          name: "output"
          type_attr: "out_type"
        }
        attr {
          name: "T"
          type: "type"
        }
        attr {
          name: "out_type"
          type: "type"
          default_value {
            type: DT_INT32
          }
          allowed_values {
            list {
              type: DT_INT32
              type: DT_INT64
            }
          }
        }
      }
      op {
        name: "Slice"
        input_arg {
          name: "input"
          type_attr: "T"
        }
        input_arg {
          name: "begin"
          type_attr: "Index"
        }
        input_arg {
          name: "size"
          type_attr: "Index"
        }
        output_arg {
          name: "output"
          type_attr: "T"
        }
        attr {
          name: "T"
          type: "type"
        }
        attr {
          name: "Index"
          type: "type"
          allowed_values {
            list {
              type: DT_INT32
              type: DT_INT64
            }
          }
        }
      }
      op {
        name: "Softmax"
        input_arg {
          name: "logits"
          type_attr: "T"
        }
        output_arg {
          name: "softmax"
          type_attr: "T"
        }
        attr {
          name: "T"
          type: "type"
          allowed_values {
            list {
              type: DT_HALF
              type: DT_BFLOAT16
              type: DT_FLOAT
              type: DT_DOUBLE
            }
          }
        }
      }
      op {
        name: "Sqrt"
        input_arg {
          name: "x"
          type_attr: "T"
        }
        output_arg {
          name: "y"
          type_attr: "T"
        }
        attr {
          name: "T"
          type: "type"
          allowed_values {
            list {
              type: DT_BFLOAT16
              type: DT_HALF
              type: DT_FLOAT
              type: DT_DOUBLE
              type: DT_COMPLEX64
              type: DT_COMPLEX128
            }
          }
        }
      }
      op {
        name: "Square"
        input_arg {
          name: "x"
          type_attr: "T"
        }
        output_arg {
          name: "y"
          type_attr: "T"
        }
        attr {
          name: "T"
          type: "type"
          allowed_values {
            list {
              type: DT_BFLOAT16
              type: DT_HALF
              type: DT_FLOAT
              type: DT_DOUBLE
              type: DT_INT32
              type: DT_INT64
              type: DT_COMPLEX64
              type: DT_COMPLEX128
            }
          }
        }
      }
      op {
        name: "StridedSlice"
        input_arg {
          name: "input"
          type_attr: "T"
        }
        input_arg {
          name: "begin"
          type_attr: "Index"
        }
        input_arg {
          name: "end"
          type_attr: "Index"
        }
        input_arg {
          name: "strides"
          type_attr: "Index"
        }
        output_arg {
          name: "output"
          type_attr: "T"
        }
        attr {
          name: "T"
          type: "type"
        }
        attr {
          name: "Index"
          type: "type"
          allowed_values {
            list {
              type: DT_INT32
              type: DT_INT64
            }
          }
        }
        attr {
          name: "begin_mask"
          type: "int"
          default_value {
            i: 0
          }
        }
        attr {
          name: "end_mask"
          type: "int"
          default_value {
            i: 0
          }
        }
        attr {
          name: "ellipsis_mask"
          type: "int"
          default_value {
            i: 0
          }
        }
        attr {
          name: "new_axis_mask"
          type: "int"
          default_value {
            i: 0
          }
        }
        attr {
          name: "shrink_axis_mask"
          type: "int"
          default_value {
            i: 0
          }
        }
      }
      op {
        name: "StringJoin"
        input_arg {
          name: "inputs"
          type: DT_STRING
          number_attr: "N"
        }
        output_arg {
          name: "output"
          type: DT_STRING
        }
        attr {
          name: "N"
          type: "int"
          has_minimum: true
          minimum: 1
        }
        attr {
          name: "separator"
          type: "string"
          default_value {
            s: ""
          }
        }
      }
      op {
        name: "Sub"
        input_arg {
          name: "x"
          type_attr: "T"
        }
        input_arg {
          name: "y"
          type_attr: "T"
        }
        output_arg {
          name: "z"
          type_attr: "T"
        }
        attr {
          name: "T"
          type: "type"
          allowed_values {
            list {
              type: DT_BFLOAT16
              type: DT_HALF
              type: DT_FLOAT
              type: DT_DOUBLE
              type: DT_UINT8
              type: DT_INT8
              type: DT_UINT16
              type: DT_INT16
              type: DT_INT32
              type: DT_INT64
              type: DT_COMPLEX64
              type: DT_COMPLEX128
            }
          }
        }
      }
      op {
        name: "Sum"
        input_arg {
          name: "input"
          type_attr: "T"
        }
        input_arg {
          name: "reduction_indices"
          type_attr: "Tidx"
        }
        output_arg {
          name: "output"
          type_attr: "T"
        }
        attr {
          name: "keep_dims"
          type: "bool"
          default_value {
            b: false
          }
        }
        attr {
          name: "T"
          type: "type"
          allowed_values {
            list {
              type: DT_FLOAT
              type: DT_DOUBLE
              type: DT_INT32
              type: DT_UINT8
              type: DT_INT16
              type: DT_INT8
              type: DT_COMPLEX64
              type: DT_INT64
              type: DT_QINT8
              type: DT_QUINT8
              type: DT_QINT32
              type: DT_BFLOAT16
              type: DT_UINT16
              type: DT_COMPLEX128
              type: DT_HALF
              type: DT_UINT32
              type: DT_UINT64
            }
          }
        }
        attr {
          name: "Tidx"
          type: "type"
          default_value {
            type: DT_INT32
          }
          allowed_values {
            list {
              type: DT_INT32
              type: DT_INT64
            }
          }
        }
      }
      op {
        name: "Switch"
        input_arg {
          name: "data"
          type_attr: "T"
        }
        input_arg {
          name: "pred"
          type: DT_BOOL
        }
        output_arg {
          name: "output_false"
          type_attr: "T"
        }
        output_arg {
          name: "output_true"
          type_attr: "T"
        }
        attr {
          name: "T"
          type: "type"
        }
      }
      op {
        name: "Tile"
        input_arg {
          name: "input"
          type_attr: "T"
        }
        input_arg {
          name: "multiples"
          type_attr: "Tmultiples"
        }
        output_arg {
          name: "output"
          type_attr: "T"
        }
        attr {
          name: "T"
          type: "type"
        }
        attr {
          name: "Tmultiples"
          type: "type"
          default_value {
            type: DT_INT32
          }
          allowed_values {
            list {
              type: DT_INT32
              type: DT_INT64
            }
          }
        }
      }
      op {
        name: "VarHandleOp"
        output_arg {
          name: "resource"
          type: DT_RESOURCE
        }
        attr {
          name: "container"
          type: "string"
          default_value {
            s: ""
          }
        }
        attr {
          name: "shared_name"
          type: "string"
          default_value {
            s: ""
          }
        }
        attr {
          name: "dtype"
          type: "type"
        }
        attr {
          name: "shape"
          type: "shape"
        }
        is_stateful: true
      }
      op {
        name: "VarIsInitializedOp"
        input_arg {
          name: "resource"
          type: DT_RESOURCE
        }
        output_arg {
          name: "is_initialized"
          type: DT_BOOL
        }
        is_stateful: true
      }
    }
    tags: "serve"
    tensorflow_version: "1.12.0"
    tensorflow_git_version: "v1.12.0-rc2-3-ga6d8ffae09"
  }
  graph_def {
    node {
      name: "input_1"
      op: "Placeholder"
      attr {
        key: "_output_shapes"
        value {
          list {
            shape {
              dim {
                size: -1
              }
              dim {
                size: 28
              }
              dim {
                size: 28
              }
              dim {
                size: 1
              }
            }
          }
        }
      }
      attr {
        key: "dtype"
        value {
          type: DT_FLOAT
        }
      }
      attr {
        key: "shape"
        value {
          shape {
            dim {
              size: -1
            }
            dim {
              size: 28
            }
            dim {
              size: 28
            }
            dim {
              size: 1
            }
          }
        }
      }
    }
    node {
      name: "conv1/kernel/Initializer/random_uniform/shape"
      op: "Const"
      attr {
        key: "_class"
        value {
          list {
            s: "loc:@conv1/kernel"
          }
        }
      }
      attr {
        key: "_output_shapes"
        value {
          list {
            shape {
              dim {
                size: 4
              }
            }
          }
        }
      }
      attr {
        key: "dtype"
        value {
          type: DT_INT32
        }
      }
      attr {
        key: "value"
        value {
          tensor {
            dtype: DT_INT32
            tensor_shape {
              dim {
                size: 4
              }
            }
            tensor_content: "\003\000\000\000\003\000\000\000\001\000\000\000 \000\000\000"
          }
        }
      }
    }
    node {
      name: "conv1/kernel/Initializer/random_uniform/min"
      op: "Const"
      attr {
        key: "_class"
        value {
          list {
            s: "loc:@conv1/kernel"
          }
        }
      }
      attr {
        key: "_output_shapes"
        value {
          list {
            shape {
            }
          }
        }
      }
      attr {
        key: "dtype"
        value {
          type: DT_FLOAT
        }
      }
      attr {
        key: "value"
        value {
          tensor {
            dtype: DT_FLOAT
            tensor_shape {
            }
            float_val: -0.14213381707668304
          }
        }
      }
    }
    node {
      name: "conv1/kernel/Initializer/random_uniform/max"
      op: "Const"
      attr {
        key: "_class"
        value {
          list {
            s: "loc:@conv1/kernel"
          }
        }
      }
      attr {
        key: "_output_shapes"
        value {
          list {
            shape {
            }
          }
        }
      }
      attr {
        key: "dtype"
        value {
          type: DT_FLOAT
        }
      }
      attr {
        key: "value"
        value {
          tensor {
            dtype: DT_FLOAT
            tensor_shape {
            }
            float_val: 0.14213381707668304
          }
        }
      }
    }
    node {
      name: "conv1/kernel/Initializer/random_uniform/RandomUniform"
      op: "RandomUniform"
      input: "conv1/kernel/Initializer/random_uniform/shape"
      attr {
        key: "T"
        value {
          type: DT_INT32
        }
      }
      attr {
        key: "_class"
        value {
          list {
            s: "loc:@conv1/kernel"
          }
        }
      }
      attr {
        key: "_output_shapes"
        value {
          list {
            shape {
              dim {
                size: 3
              }
              dim {
                size: 3
              }
              dim {
                size: 1
              }
              dim {
                size: 32
              }
            }
          }
        }
      }
      attr {
        key: "dtype"
        value {
          type: DT_FLOAT
        }
      }
      attr {
        key: "seed"
        value {
          i: 0
        }
      }
      attr {
        key: "seed2"
        value {
          i: 0
        }
      }
    }
    node {
      name: "conv1/kernel/Initializer/random_uniform/sub"
      op: "Sub"
      input: "conv1/kernel/Initializer/random_uniform/max"
      input: "conv1/kernel/Initializer/random_uniform/min"
      attr {
        key: "T"
        value {
          type: DT_FLOAT
        }
      }
      attr {
        key: "_class"
        value {
          list {
            s: "loc:@conv1/kernel"
          }
        }
      }
      attr {
        key: "_output_shapes"
        value {
          list {
            shape {
            }
          }
        }
      }
    }
    node {
      name: "conv1/kernel/Initializer/random_uniform/mul"
      op: "Mul"
      input: "conv1/kernel/Initializer/random_uniform/RandomUniform"
      input: "conv1/kernel/Initializer/random_uniform/sub"
      attr {
        key: "T"
        value {
          type: DT_FLOAT
        }
      }
      attr {
        key: "_class"
        value {
          list {
            s: "loc:@conv1/kernel"
          }
        }
      }
      attr {
        key: "_output_shapes"
        value {
          list {
            shape {
              dim {
                size: 3
              }
              dim {
                size: 3
              }
              dim {
                size: 1
              }
              dim {
                size: 32
              }
            }
          }
        }
      }
    }
    node {
      name: "conv1/kernel/Initializer/random_uniform"
      op: "Add"
      input: "conv1/kernel/Initializer/random_uniform/mul"
      input: "conv1/kernel/Initializer/random_uniform/min"
      attr {
        key: "T"
        value {
          type: DT_FLOAT
        }
      }
      attr {
        key: "_class"
        value {
          list {
            s: "loc:@conv1/kernel"
          }
        }
      }
      attr {
        key: "_output_shapes"
        value {
          list {
            shape {
              dim {
                size: 3
              }
              dim {
                size: 3
              }
              dim {
                size: 1
              }
              dim {
                size: 32
              }
            }
          }
        }
      }
    }
    node {
      name: "conv1/kernel"
      op: "VarHandleOp"
      attr {
        key: "_class"
        value {
          list {
            s: "loc:@conv1/kernel"
          }
        }
      }
      attr {
        key: "_output_shapes"
        value {
          list {
            shape {
            }
          }
        }
      }
      attr {
        key: "container"
        value {
          s: ""
        }
      }
      attr {
        key: "dtype"
        value {
          type: DT_FLOAT
        }
      }
      attr {
        key: "shape"
        value {
          shape {
            dim {
              size: 3
            }
            dim {
              size: 3
            }
            dim {
              size: 1
            }
            dim {
              size: 32
            }
          }
        }
      }
      attr {
        key: "shared_name"
        value {
          s: "conv1/kernel"
        }
      }
    }
    node {
      name: "conv1/kernel/IsInitialized/VarIsInitializedOp"
      op: "VarIsInitializedOp"
      input: "conv1/kernel"
      attr {
        key: "_output_shapes"
        value {
          list {
            shape {
            }
          }
        }
      }
    }
    node {
      name: "conv1/kernel/Assign"
      op: "AssignVariableOp"
      input: "conv1/kernel"
      input: "conv1/kernel/Initializer/random_uniform"
      attr {
        key: "_class"
        value {
          list {
            s: "loc:@conv1/kernel"
          }
        }
      }
      attr {
        key: "dtype"
        value {
          type: DT_FLOAT
        }
      }
    }
    node {
      name: "conv1/kernel/Read/ReadVariableOp"
      op: "ReadVariableOp"
      input: "conv1/kernel"
      attr {
        key: "_class"
        value {
          list {
            s: "loc:@conv1/kernel"
          }
        }
      }
      attr {
        key: "_output_shapes"
        value {
          list {
            shape {
              dim {
                size: 3
              }
              dim {
                size: 3
              }
              dim {
                size: 1
              }
              dim {
                size: 32
              }
            }
          }
        }
      }
      attr {
        key: "dtype"
        value {
          type: DT_FLOAT
        }
      }
    }
    node {
      name: "conv1/bias/Initializer/zeros"
      op: "Const"
      attr {
        key: "_class"
        value {
          list {
            s: "loc:@conv1/bias"
          }
        }
      }
      attr {
        key: "_output_shapes"
        value {
          list {
            shape {
              dim {
                size: 32
              }
            }
          }
        }
      }
      attr {
        key: "dtype"
        value {
          type: DT_FLOAT
        }
      }
      attr {
        key: "value"
        value {
          tensor {
            dtype: DT_FLOAT
            tensor_shape {
              dim {
                size: 32
              }
            }
            float_val: 0.0
          }
        }
      }
    }
    node {
      name: "conv1/bias"
      op: "VarHandleOp"
      attr {
        key: "_class"
        value {
          list {
            s: "loc:@conv1/bias"
          }
        }
      }
      attr {
        key: "_output_shapes"
        value {
          list {
            shape {
            }
          }
        }
      }
      attr {
        key: "container"
        value {
          s: ""
        }
      }
      attr {
        key: "dtype"
        value {
          type: DT_FLOAT
        }
      }
      attr {
        key: "shape"
        value {
          shape {
            dim {
              size: 32
            }
          }
        }
      }
      attr {
        key: "shared_name"
        value {
          s: "conv1/bias"
        }
      }
    }
    node {
      name: "conv1/bias/IsInitialized/VarIsInitializedOp"
      op: "VarIsInitializedOp"
      input: "conv1/bias"
      attr {
        key: "_output_shapes"
        value {
          list {
            shape {
            }
          }
        }
      }
    }
    node {
      name: "conv1/bias/Assign"
      op: "AssignVariableOp"
      input: "conv1/bias"
      input: "conv1/bias/Initializer/zeros"
      attr {
        key: "_class"
        value {
          list {
            s: "loc:@conv1/bias"
          }
        }
      }
      attr {
        key: "dtype"
        value {
          type: DT_FLOAT
        }
      }
    }
    node {
      name: "conv1/bias/Read/ReadVariableOp"
      op: "ReadVariableOp"
      input: "conv1/bias"
      attr {
        key: "_class"
        value {
          list {
            s: "loc:@conv1/bias"
          }
        }
      }
      attr {
        key: "_output_shapes"
        value {
          list {
            shape {
              dim {
                size: 32
              }
            }
          }
        }
      }
      attr {
        key: "dtype"
        value {
          type: DT_FLOAT
        }
      }
    }
    node {
      name: "conv1/dilation_rate"
      op: "Const"
      attr {
        key: "_output_shapes"
        value {
          list {
            shape {
              dim {
                size: 2
              }
            }
          }
        }
      }
      attr {
        key: "dtype"
        value {
          type: DT_INT32
        }
      }
      attr {
        key: "value"
        value {
          tensor {
            dtype: DT_INT32
            tensor_shape {
              dim {
                size: 2
              }
            }
            tensor_content: "\001\000\000\000\001\000\000\000"
          }
        }
      }
    }
    node {
      name: "conv1/Conv2D/ReadVariableOp"
      op: "ReadVariableOp"
      input: "conv1/kernel"
      attr {
        key: "_output_shapes"
        value {
          list {
            shape {
              dim {
                size: 3
              }
              dim {
                size: 3
              }
              dim {
                size: 1
              }
              dim {
                size: 32
              }
            }
          }
        }
      }
      attr {
        key: "dtype"
        value {
          type: DT_FLOAT
        }
      }
    }
    node {
      name: "conv1/Conv2D"
      op: "Conv2D"
      input: "input_1"
      input: "conv1/Conv2D/ReadVariableOp"
      attr {
        key: "T"
        value {
          type: DT_FLOAT
        }
      }
      attr {
        key: "_output_shapes"
        value {
          list {
            shape {
              dim {
                size: -1
              }
              dim {
                size: 28
              }
              dim {
                size: 28
              }
              dim {
                size: 32
              }
            }
          }
        }
      }
      attr {
        key: "data_format"
        value {
          s: "NHWC"
        }
      }
      attr {
        key: "dilations"
        value {
          list {
            i: 1
            i: 1
            i: 1
            i: 1
          }
        }
      }
      attr {
        key: "padding"
        value {
          s: "SAME"
        }
      }
      attr {
        key: "strides"
        value {
          list {
            i: 1
            i: 1
            i: 1
            i: 1
          }
        }
      }
      attr {
        key: "use_cudnn_on_gpu"
        value {
          b: true
        }
      }
    }
    node {
      name: "conv1/BiasAdd/ReadVariableOp"
      op: "ReadVariableOp"
      input: "conv1/bias"
      attr {
        key: "_output_shapes"
        value {
          list {
            shape {
              dim {
                size: 32
              }
            }
          }
        }
      }
      attr {
        key: "dtype"
        value {
          type: DT_FLOAT
        }
      }
    }
    node {
      name: "conv1/BiasAdd"
      op: "BiasAdd"
      input: "conv1/Conv2D"
      input: "conv1/BiasAdd/ReadVariableOp"
      attr {
        key: "T"
        value {
          type: DT_FLOAT
        }
      }
      attr {
        key: "_output_shapes"
        value {
          list {
            shape {
              dim {
                size: -1
              }
              dim {
                size: 28
              }
              dim {
                size: 28
              }
              dim {
                size: 32
              }
            }
          }
        }
      }
      attr {
        key: "data_format"
        value {
          s: "NHWC"
        }
      }
    }
    node {
      name: "conv1/Relu"
      op: "Relu"
      input: "conv1/BiasAdd"
      attr {
        key: "T"
        value {
          type: DT_FLOAT
        }
      }
      attr {
        key: "_output_shapes"
        value {
          list {
            shape {
              dim {
                size: -1
              }
              dim {
                size: 28
              }
              dim {
                size: 28
              }
              dim {
                size: 32
              }
            }
          }
        }
      }
    }
    node {
      name: "conv2_1/kernel/Initializer/random_uniform/shape"
      op: "Const"
      attr {
        key: "_class"
        value {
          list {
            s: "loc:@conv2_1/kernel"
          }
        }
      }
      attr {
        key: "_output_shapes"
        value {
          list {
            shape {
              dim {
                size: 4
              }
            }
          }
        }
      }
      attr {
        key: "dtype"
        value {
          type: DT_INT32
        }
      }
      attr {
        key: "value"
        value {
          tensor {
            dtype: DT_INT32
            tensor_shape {
              dim {
                size: 4
              }
            }
            tensor_content: "\003\000\000\000\003\000\000\000 \000\000\000@\000\000\000"
          }
        }
      }
    }
    node {
      name: "conv2_1/kernel/Initializer/random_uniform/min"
      op: "Const"
      attr {
        key: "_class"
        value {
          list {
            s: "loc:@conv2_1/kernel"
          }
        }
      }
      attr {
        key: "_output_shapes"
        value {
          list {
            shape {
            }
          }
        }
      }
      attr {
        key: "dtype"
        value {
          type: DT_FLOAT
        }
      }
      attr {
        key: "value"
        value {
          tensor {
            dtype: DT_FLOAT
            tensor_shape {
            }
            float_val: -0.0833333358168602
          }
        }
      }
    }
    node {
      name: "conv2_1/kernel/Initializer/random_uniform/max"
      op: "Const"
      attr {
        key: "_class"
        value {
          list {
            s: "loc:@conv2_1/kernel"
          }
        }
      }
      attr {
        key: "_output_shapes"
        value {
          list {
            shape {
            }
          }
        }
      }
      attr {
        key: "dtype"
        value {
          type: DT_FLOAT
        }
      }
      attr {
        key: "value"
        value {
          tensor {
            dtype: DT_FLOAT
            tensor_shape {
            }
            float_val: 0.0833333358168602
          }
        }
      }
    }
    node {
      name: "conv2_1/kernel/Initializer/random_uniform/RandomUniform"
      op: "RandomUniform"
      input: "conv2_1/kernel/Initializer/random_uniform/shape"
      attr {
        key: "T"
        value {
          type: DT_INT32
        }
      }
      attr {
        key: "_class"
        value {
          list {
            s: "loc:@conv2_1/kernel"
          }
        }
      }
      attr {
        key: "_output_shapes"
        value {
          list {
            shape {
              dim {
                size: 3
              }
              dim {
                size: 3
              }
              dim {
                size: 32
              }
              dim {
                size: 64
              }
            }
          }
        }
      }
      attr {
        key: "dtype"
        value {
          type: DT_FLOAT
        }
      }
      attr {
        key: "seed"
        value {
          i: 0
        }
      }
      attr {
        key: "seed2"
        value {
          i: 0
        }
      }
    }
    node {
      name: "conv2_1/kernel/Initializer/random_uniform/sub"
      op: "Sub"
      input: "conv2_1/kernel/Initializer/random_uniform/max"
      input: "conv2_1/kernel/Initializer/random_uniform/min"
      attr {
        key: "T"
        value {
          type: DT_FLOAT
        }
      }
      attr {
        key: "_class"
        value {
          list {
            s: "loc:@conv2_1/kernel"
          }
        }
      }
      attr {
        key: "_output_shapes"
        value {
          list {
            shape {
            }
          }
        }
      }
    }
    node {
      name: "conv2_1/kernel/Initializer/random_uniform/mul"
      op: "Mul"
      input: "conv2_1/kernel/Initializer/random_uniform/RandomUniform"
      input: "conv2_1/kernel/Initializer/random_uniform/sub"
      attr {
        key: "T"
        value {
          type: DT_FLOAT
        }
      }
      attr {
        key: "_class"
        value {
          list {
            s: "loc:@conv2_1/kernel"
          }
        }
      }
      attr {
        key: "_output_shapes"
        value {
          list {
            shape {
              dim {
                size: 3
              }
              dim {
                size: 3
              }
              dim {
                size: 32
              }
              dim {
                size: 64
              }
            }
          }
        }
      }
    }
    node {
      name: "conv2_1/kernel/Initializer/random_uniform"
      op: "Add"
      input: "conv2_1/kernel/Initializer/random_uniform/mul"
      input: "conv2_1/kernel/Initializer/random_uniform/min"
      attr {
        key: "T"
        value {
          type: DT_FLOAT
        }
      }
      attr {
        key: "_class"
        value {
          list {
            s: "loc:@conv2_1/kernel"
          }
        }
      }
      attr {
        key: "_output_shapes"
        value {
          list {
            shape {
              dim {
                size: 3
              }
              dim {
                size: 3
              }
              dim {
                size: 32
              }
              dim {
                size: 64
              }
            }
          }
        }
      }
    }
    node {
      name: "conv2_1/kernel"
      op: "VarHandleOp"
      attr {
        key: "_class"
        value {
          list {
            s: "loc:@conv2_1/kernel"
          }
        }
      }
      attr {
        key: "_output_shapes"
        value {
          list {
            shape {
            }
          }
        }
      }
      attr {
        key: "container"
        value {
          s: ""
        }
      }
      attr {
        key: "dtype"
        value {
          type: DT_FLOAT
        }
      }
      attr {
        key: "shape"
        value {
          shape {
            dim {
              size: 3
            }
            dim {
              size: 3
            }
            dim {
              size: 32
            }
            dim {
              size: 64
            }
          }
        }
      }
      attr {
        key: "shared_name"
        value {
          s: "conv2_1/kernel"
        }
      }
    }
    node {
      name: "conv2_1/kernel/IsInitialized/VarIsInitializedOp"
      op: "VarIsInitializedOp"
      input: "conv2_1/kernel"
      attr {
        key: "_output_shapes"
        value {
          list {
            shape {
            }
          }
        }
      }
    }
    node {
      name: "conv2_1/kernel/Assign"
      op: "AssignVariableOp"
      input: "conv2_1/kernel"
      input: "conv2_1/kernel/Initializer/random_uniform"
      attr {
        key: "_class"
        value {
          list {
            s: "loc:@conv2_1/kernel"
          }
        }
      }
      attr {
        key: "dtype"
        value {
          type: DT_FLOAT
        }
      }
    }
    node {
      name: "conv2_1/kernel/Read/ReadVariableOp"
      op: "ReadVariableOp"
      input: "conv2_1/kernel"
      attr {
        key: "_class"
        value {
          list {
            s: "loc:@conv2_1/kernel"
          }
        }
      }
      attr {
        key: "_output_shapes"
        value {
          list {
            shape {
              dim {
                size: 3
              }
              dim {
                size: 3
              }
              dim {
                size: 32
              }
              dim {
                size: 64
              }
            }
          }
        }
      }
      attr {
        key: "dtype"
        value {
          type: DT_FLOAT
        }
      }
    }
    node {
      name: "conv2_1/bias/Initializer/zeros"
      op: "Const"
      attr {
        key: "_class"
        value {
          list {
            s: "loc:@conv2_1/bias"
          }
        }
      }
      attr {
        key: "_output_shapes"
        value {
          list {
            shape {
              dim {
                size: 64
              }
            }
          }
        }
      }
      attr {
        key: "dtype"
        value {
          type: DT_FLOAT
        }
      }
      attr {
        key: "value"
        value {
          tensor {
            dtype: DT_FLOAT
            tensor_shape {
              dim {
                size: 64
              }
            }
            float_val: 0.0
          }
        }
      }
    }
    node {
      name: "conv2_1/bias"
      op: "VarHandleOp"
      attr {
        key: "_class"
        value {
          list {
            s: "loc:@conv2_1/bias"
          }
        }
      }
      attr {
        key: "_output_shapes"
        value {
          list {
            shape {
            }
          }
        }
      }
      attr {
        key: "container"
        value {
          s: ""
        }
      }
      attr {
        key: "dtype"
        value {
          type: DT_FLOAT
        }
      }
      attr {
        key: "shape"
        value {
          shape {
            dim {
              size: 64
            }
          }
        }
      }
      attr {
        key: "shared_name"
        value {
          s: "conv2_1/bias"
        }
      }
    }
    node {
      name: "conv2_1/bias/IsInitialized/VarIsInitializedOp"
      op: "VarIsInitializedOp"
      input: "conv2_1/bias"
      attr {
        key: "_output_shapes"
        value {
          list {
            shape {
            }
          }
        }
      }
    }
    node {
      name: "conv2_1/bias/Assign"
      op: "AssignVariableOp"
      input: "conv2_1/bias"
      input: "conv2_1/bias/Initializer/zeros"
      attr {
        key: "_class"
        value {
          list {
            s: "loc:@conv2_1/bias"
          }
        }
      }
      attr {
        key: "dtype"
        value {
          type: DT_FLOAT
        }
      }
    }
    node {
      name: "conv2_1/bias/Read/ReadVariableOp"
      op: "ReadVariableOp"
      input: "conv2_1/bias"
      attr {
        key: "_class"
        value {
          list {
            s: "loc:@conv2_1/bias"
          }
        }
      }
      attr {
        key: "_output_shapes"
        value {
          list {
            shape {
              dim {
                size: 64
              }
            }
          }
        }
      }
      attr {
        key: "dtype"
        value {
          type: DT_FLOAT
        }
      }
    }
    node {
      name: "conv2_1/dilation_rate"
      op: "Const"
      attr {
        key: "_output_shapes"
        value {
          list {
            shape {
              dim {
                size: 2
              }
            }
          }
        }
      }
      attr {
        key: "dtype"
        value {
          type: DT_INT32
        }
      }
      attr {
        key: "value"
        value {
          tensor {
            dtype: DT_INT32
            tensor_shape {
              dim {
                size: 2
              }
            }
            tensor_content: "\001\000\000\000\001\000\000\000"
          }
        }
      }
    }
    node {
      name: "conv2_1/Conv2D/ReadVariableOp"
      op: "ReadVariableOp"
      input: "conv2_1/kernel"
      attr {
        key: "_output_shapes"
        value {
          list {
            shape {
              dim {
                size: 3
              }
              dim {
                size: 3
              }
              dim {
                size: 32
              }
              dim {
                size: 64
              }
            }
          }
        }
      }
      attr {
        key: "dtype"
        value {
          type: DT_FLOAT
        }
      }
    }
    node {
      name: "conv2_1/Conv2D"
      op: "Conv2D"
      input: "conv1/Relu"
      input: "conv2_1/Conv2D/ReadVariableOp"
      attr {
        key: "T"
        value {
          type: DT_FLOAT
        }
      }
      attr {
        key: "_output_shapes"
        value {
          list {
            shape {
              dim {
                size: -1
              }
              dim {
                size: 28
              }
              dim {
                size: 28
              }
              dim {
                size: 64
              }
            }
          }
        }
      }
      attr {
        key: "data_format"
        value {
          s: "NHWC"
        }
      }
      attr {
        key: "dilations"
        value {
          list {
            i: 1
            i: 1
            i: 1
            i: 1
          }
        }
      }
      attr {
        key: "padding"
        value {
          s: "SAME"
        }
      }
      attr {
        key: "strides"
        value {
          list {
            i: 1
            i: 1
            i: 1
            i: 1
          }
        }
      }
      attr {
        key: "use_cudnn_on_gpu"
        value {
          b: true
        }
      }
    }
    node {
      name: "conv2_1/BiasAdd/ReadVariableOp"
      op: "ReadVariableOp"
      input: "conv2_1/bias"
      attr {
        key: "_output_shapes"
        value {
          list {
            shape {
              dim {
                size: 64
              }
            }
          }
        }
      }
      attr {
        key: "dtype"
        value {
          type: DT_FLOAT
        }
      }
    }
    node {
      name: "conv2_1/BiasAdd"
      op: "BiasAdd"
      input: "conv2_1/Conv2D"
      input: "conv2_1/BiasAdd/ReadVariableOp"
      attr {
        key: "T"
        value {
          type: DT_FLOAT
        }
      }
      attr {
        key: "_output_shapes"
        value {
          list {
            shape {
              dim {
                size: -1
              }
              dim {
                size: 28
              }
              dim {
                size: 28
              }
              dim {
                size: 64
              }
            }
          }
        }
      }
      attr {
        key: "data_format"
        value {
          s: "NHWC"
        }
      }
    }
    node {
      name: "conv2_1/Relu"
      op: "Relu"
      input: "conv2_1/BiasAdd"
      attr {
        key: "T"
        value {
          type: DT_FLOAT
        }
      }
      attr {
        key: "_output_shapes"
        value {
          list {
            shape {
              dim {
                size: -1
              }
              dim {
                size: 28
              }
              dim {
                size: 28
              }
              dim {
                size: 64
              }
            }
          }
        }
      }
    }
    node {
      name: "maxpool2_1/MaxPool"
      op: "MaxPool"
      input: "conv2_1/Relu"
      attr {
        key: "T"
        value {
          type: DT_FLOAT
        }
      }
      attr {
        key: "_output_shapes"
        value {
          list {
            shape {
              dim {
                size: -1
              }
              dim {
                size: 14
              }
              dim {
                size: 14
              }
              dim {
                size: 64
              }
            }
          }
        }
      }
      attr {
        key: "data_format"
        value {
          s: "NHWC"
        }
      }
      attr {
        key: "ksize"
        value {
          list {
            i: 1
            i: 2
            i: 2
            i: 1
          }
        }
      }
      attr {
        key: "padding"
        value {
          s: "VALID"
        }
      }
      attr {
        key: "strides"
        value {
          list {
            i: 1
            i: 2
            i: 2
            i: 1
          }
        }
      }
    }
    node {
      name: "conv2_2/kernel/Initializer/random_uniform/shape"
      op: "Const"
      attr {
        key: "_class"
        value {
          list {
            s: "loc:@conv2_2/kernel"
          }
        }
      }
      attr {
        key: "_output_shapes"
        value {
          list {
            shape {
              dim {
                size: 4
              }
            }
          }
        }
      }
      attr {
        key: "dtype"
        value {
          type: DT_INT32
        }
      }
      attr {
        key: "value"
        value {
          tensor {
            dtype: DT_INT32
            tensor_shape {
              dim {
                size: 4
              }
            }
            tensor_content: "\003\000\000\000\003\000\000\000 \000\000\000@\000\000\000"
          }
        }
      }
    }
    node {
      name: "conv2_2/kernel/Initializer/random_uniform/min"
      op: "Const"
      attr {
        key: "_class"
        value {
          list {
            s: "loc:@conv2_2/kernel"
          }
        }
      }
      attr {
        key: "_output_shapes"
        value {
          list {
            shape {
            }
          }
        }
      }
      attr {
        key: "dtype"
        value {
          type: DT_FLOAT
        }
      }
      attr {
        key: "value"
        value {
          tensor {
            dtype: DT_FLOAT
            tensor_shape {
            }
            float_val: -0.0833333358168602
          }
        }
      }
    }
    node {
      name: "conv2_2/kernel/Initializer/random_uniform/max"
      op: "Const"
      attr {
        key: "_class"
        value {
          list {
            s: "loc:@conv2_2/kernel"
          }
        }
      }
      attr {
        key: "_output_shapes"
        value {
          list {
            shape {
            }
          }
        }
      }
      attr {
        key: "dtype"
        value {
          type: DT_FLOAT
        }
      }
      attr {
        key: "value"
        value {
          tensor {
            dtype: DT_FLOAT
            tensor_shape {
            }
            float_val: 0.0833333358168602
          }
        }
      }
    }
    node {
      name: "conv2_2/kernel/Initializer/random_uniform/RandomUniform"
      op: "RandomUniform"
      input: "conv2_2/kernel/Initializer/random_uniform/shape"
      attr {
        key: "T"
        value {
          type: DT_INT32
        }
      }
      attr {
        key: "_class"
        value {
          list {
            s: "loc:@conv2_2/kernel"
          }
        }
      }
      attr {
        key: "_output_shapes"
        value {
          list {
            shape {
              dim {
                size: 3
              }
              dim {
                size: 3
              }
              dim {
                size: 32
              }
              dim {
                size: 64
              }
            }
          }
        }
      }
      attr {
        key: "dtype"
        value {
          type: DT_FLOAT
        }
      }
      attr {
        key: "seed"
        value {
          i: 0
        }
      }
      attr {
        key: "seed2"
        value {
          i: 0
        }
      }
    }
    node {
      name: "conv2_2/kernel/Initializer/random_uniform/sub"
      op: "Sub"
      input: "conv2_2/kernel/Initializer/random_uniform/max"
      input: "conv2_2/kernel/Initializer/random_uniform/min"
      attr {
        key: "T"
        value {
          type: DT_FLOAT
        }
      }
      attr {
        key: "_class"
        value {
          list {
            s: "loc:@conv2_2/kernel"
          }
        }
      }
      attr {
        key: "_output_shapes"
        value {
          list {
            shape {
            }
          }
        }
      }
    }
    node {
      name: "conv2_2/kernel/Initializer/random_uniform/mul"
      op: "Mul"
      input: "conv2_2/kernel/Initializer/random_uniform/RandomUniform"
      input: "conv2_2/kernel/Initializer/random_uniform/sub"
      attr {
        key: "T"
        value {
          type: DT_FLOAT
        }
      }
      attr {
        key: "_class"
        value {
          list {
            s: "loc:@conv2_2/kernel"
          }
        }
      }
      attr {
        key: "_output_shapes"
        value {
          list {
            shape {
              dim {
                size: 3
              }
              dim {
                size: 3
              }
              dim {
                size: 32
              }
              dim {
                size: 64
              }
            }
          }
        }
      }
    }
    node {
      name: "conv2_2/kernel/Initializer/random_uniform"
      op: "Add"
      input: "conv2_2/kernel/Initializer/random_uniform/mul"
      input: "conv2_2/kernel/Initializer/random_uniform/min"
      attr {
        key: "T"
        value {
          type: DT_FLOAT
        }
      }
      attr {
        key: "_class"
        value {
          list {
            s: "loc:@conv2_2/kernel"
          }
        }
      }
      attr {
        key: "_output_shapes"
        value {
          list {
            shape {
              dim {
                size: 3
              }
              dim {
                size: 3
              }
              dim {
                size: 32
              }
              dim {
                size: 64
              }
            }
          }
        }
      }
    }
    node {
      name: "conv2_2/kernel"
      op: "VarHandleOp"
      attr {
        key: "_class"
        value {
          list {
            s: "loc:@conv2_2/kernel"
          }
        }
      }
      attr {
        key: "_output_shapes"
        value {
          list {
            shape {
            }
          }
        }
      }
      attr {
        key: "container"
        value {
          s: ""
        }
      }
      attr {
        key: "dtype"
        value {
          type: DT_FLOAT
        }
      }
      attr {
        key: "shape"
        value {
          shape {
            dim {
              size: 3
            }
            dim {
              size: 3
            }
            dim {
              size: 32
            }
            dim {
              size: 64
            }
          }
        }
      }
      attr {
        key: "shared_name"
        value {
          s: "conv2_2/kernel"
        }
      }
    }
    node {
      name: "conv2_2/kernel/IsInitialized/VarIsInitializedOp"
      op: "VarIsInitializedOp"
      input: "conv2_2/kernel"
      attr {
        key: "_output_shapes"
        value {
          list {
            shape {
            }
          }
        }
      }
    }
    node {
      name: "conv2_2/kernel/Assign"
      op: "AssignVariableOp"
      input: "conv2_2/kernel"
      input: "conv2_2/kernel/Initializer/random_uniform"
      attr {
        key: "_class"
        value {
          list {
            s: "loc:@conv2_2/kernel"
          }
        }
      }
      attr {
        key: "dtype"
        value {
          type: DT_FLOAT
        }
      }
    }
    node {
      name: "conv2_2/kernel/Read/ReadVariableOp"
      op: "ReadVariableOp"
      input: "conv2_2/kernel"
      attr {
        key: "_class"
        value {
          list {
            s: "loc:@conv2_2/kernel"
          }
        }
      }
      attr {
        key: "_output_shapes"
        value {
          list {
            shape {
              dim {
                size: 3
              }
              dim {
                size: 3
              }
              dim {
                size: 32
              }
              dim {
                size: 64
              }
            }
          }
        }
      }
      attr {
        key: "dtype"
        value {
          type: DT_FLOAT
        }
      }
    }
    node {
      name: "conv2_2/bias/Initializer/zeros"
      op: "Const"
      attr {
        key: "_class"
        value {
          list {
            s: "loc:@conv2_2/bias"
          }
        }
      }
      attr {
        key: "_output_shapes"
        value {
          list {
            shape {
              dim {
                size: 64
              }
            }
          }
        }
      }
      attr {
        key: "dtype"
        value {
          type: DT_FLOAT
        }
      }
      attr {
        key: "value"
        value {
          tensor {
            dtype: DT_FLOAT
            tensor_shape {
              dim {
                size: 64
              }
            }
            float_val: 0.0
          }
        }
      }
    }
    node {
      name: "conv2_2/bias"
      op: "VarHandleOp"
      attr {
        key: "_class"
        value {
          list {
            s: "loc:@conv2_2/bias"
          }
        }
      }
      attr {
        key: "_output_shapes"
        value {
          list {
            shape {
            }
          }
        }
      }
      attr {
        key: "container"
        value {
          s: ""
        }
      }
      attr {
        key: "dtype"
        value {
          type: DT_FLOAT
        }
      }
      attr {
        key: "shape"
        value {
          shape {
            dim {
              size: 64
            }
          }
        }
      }
      attr {
        key: "shared_name"
        value {
          s: "conv2_2/bias"
        }
      }
    }
    node {
      name: "conv2_2/bias/IsInitialized/VarIsInitializedOp"
      op: "VarIsInitializedOp"
      input: "conv2_2/bias"
      attr {
        key: "_output_shapes"
        value {
          list {
            shape {
            }
          }
        }
      }
    }
    node {
      name: "conv2_2/bias/Assign"
      op: "AssignVariableOp"
      input: "conv2_2/bias"
      input: "conv2_2/bias/Initializer/zeros"
      attr {
        key: "_class"
        value {
          list {
            s: "loc:@conv2_2/bias"
          }
        }
      }
      attr {
        key: "dtype"
        value {
          type: DT_FLOAT
        }
      }
    }
    node {
      name: "conv2_2/bias/Read/ReadVariableOp"
      op: "ReadVariableOp"
      input: "conv2_2/bias"
      attr {
        key: "_class"
        value {
          list {
            s: "loc:@conv2_2/bias"
          }
        }
      }
      attr {
        key: "_output_shapes"
        value {
          list {
            shape {
              dim {
                size: 64
              }
            }
          }
        }
      }
      attr {
        key: "dtype"
        value {
          type: DT_FLOAT
        }
      }
    }
    node {
      name: "conv2_2/dilation_rate"
      op: "Const"
      attr {
        key: "_output_shapes"
        value {
          list {
            shape {
              dim {
                size: 2
              }
            }
          }
        }
      }
      attr {
        key: "dtype"
        value {
          type: DT_INT32
        }
      }
      attr {
        key: "value"
        value {
          tensor {
            dtype: DT_INT32
            tensor_shape {
              dim {
                size: 2
              }
            }
            tensor_content: "\001\000\000\000\001\000\000\000"
          }
        }
      }
    }
    node {
      name: "conv2_2/Conv2D/ReadVariableOp"
      op: "ReadVariableOp"
      input: "conv2_2/kernel"
      attr {
        key: "_output_shapes"
        value {
          list {
            shape {
              dim {
                size: 3
              }
              dim {
                size: 3
              }
              dim {
                size: 32
              }
              dim {
                size: 64
              }
            }
          }
        }
      }
      attr {
        key: "dtype"
        value {
          type: DT_FLOAT
        }
      }
    }
    node {
      name: "conv2_2/Conv2D"
      op: "Conv2D"
      input: "conv1/Relu"
      input: "conv2_2/Conv2D/ReadVariableOp"
      attr {
        key: "T"
        value {
          type: DT_FLOAT
        }
      }
      attr {
        key: "_output_shapes"
        value {
          list {
            shape {
              dim {
                size: -1
              }
              dim {
                size: 28
              }
              dim {
                size: 28
              }
              dim {
                size: 64
              }
            }
          }
        }
      }
      attr {
        key: "data_format"
        value {
          s: "NHWC"
        }
      }
      attr {
        key: "dilations"
        value {
          list {
            i: 1
            i: 1
            i: 1
            i: 1
          }
        }
      }
      attr {
        key: "padding"
        value {
          s: "SAME"
        }
      }
      attr {
        key: "strides"
        value {
          list {
            i: 1
            i: 1
            i: 1
            i: 1
          }
        }
      }
      attr {
        key: "use_cudnn_on_gpu"
        value {
          b: true
        }
      }
    }
    node {
      name: "conv2_2/BiasAdd/ReadVariableOp"
      op: "ReadVariableOp"
      input: "conv2_2/bias"
      attr {
        key: "_output_shapes"
        value {
          list {
            shape {
              dim {
                size: 64
              }
            }
          }
        }
      }
      attr {
        key: "dtype"
        value {
          type: DT_FLOAT
        }
      }
    }
    node {
      name: "conv2_2/BiasAdd"
      op: "BiasAdd"
      input: "conv2_2/Conv2D"
      input: "conv2_2/BiasAdd/ReadVariableOp"
      attr {
        key: "T"
        value {
          type: DT_FLOAT
        }
      }
      attr {
        key: "_output_shapes"
        value {
          list {
            shape {
              dim {
                size: -1
              }
              dim {
                size: 28
              }
              dim {
                size: 28
              }
              dim {
                size: 64
              }
            }
          }
        }
      }
      attr {
        key: "data_format"
        value {
          s: "NHWC"
        }
      }
    }
    node {
      name: "conv2_2/Relu"
      op: "Relu"
      input: "conv2_2/BiasAdd"
      attr {
        key: "T"
        value {
          type: DT_FLOAT
        }
      }
      attr {
        key: "_output_shapes"
        value {
          list {
            shape {
              dim {
                size: -1
              }
              dim {
                size: 28
              }
              dim {
                size: 28
              }
              dim {
                size: 64
              }
            }
          }
        }
      }
    }
    node {
      name: "maxpool2_2/MaxPool"
      op: "MaxPool"
      input: "conv2_2/Relu"
      attr {
        key: "T"
        value {
          type: DT_FLOAT
        }
      }
      attr {
        key: "_output_shapes"
        value {
          list {
            shape {
              dim {
                size: -1
              }
              dim {
                size: 14
              }
              dim {
                size: 14
              }
              dim {
                size: 64
              }
            }
          }
        }
      }
      attr {
        key: "data_format"
        value {
          s: "NHWC"
        }
      }
      attr {
        key: "ksize"
        value {
          list {
            i: 1
            i: 2
            i: 2
            i: 1
          }
        }
      }
      attr {
        key: "padding"
        value {
          s: "VALID"
        }
      }
      attr {
        key: "strides"
        value {
          list {
            i: 1
            i: 2
            i: 2
            i: 1
          }
        }
      }
    }
    node {
      name: "conv3_1/kernel/Initializer/random_uniform/shape"
      op: "Const"
      attr {
        key: "_class"
        value {
          list {
            s: "loc:@conv3_1/kernel"
          }
        }
      }
      attr {
        key: "_output_shapes"
        value {
          list {
            shape {
              dim {
                size: 4
              }
            }
          }
        }
      }
      attr {
        key: "dtype"
        value {
          type: DT_INT32
        }
      }
      attr {
        key: "value"
        value {
          tensor {
            dtype: DT_INT32
            tensor_shape {
              dim {
                size: 4
              }
            }
            tensor_content: "\003\000\000\000\003\000\000\000@\000\000\000\000\001\000\000"
          }
        }
      }
    }
    node {
      name: "conv3_1/kernel/Initializer/random_uniform/min"
      op: "Const"
      attr {
        key: "_class"
        value {
          list {
            s: "loc:@conv3_1/kernel"
          }
        }
      }
      attr {
        key: "_output_shapes"
        value {
          list {
            shape {
            }
          }
        }
      }
      attr {
        key: "dtype"
        value {
          type: DT_FLOAT
        }
      }
      attr {
        key: "value"
        value {
          tensor {
            dtype: DT_FLOAT
            tensor_shape {
            }
            float_val: -0.04564354568719864
          }
        }
      }
    }
    node {
      name: "conv3_1/kernel/Initializer/random_uniform/max"
      op: "Const"
      attr {
        key: "_class"
        value {
          list {
            s: "loc:@conv3_1/kernel"
          }
        }
      }
      attr {
        key: "_output_shapes"
        value {
          list {
            shape {
            }
          }
        }
      }
      attr {
        key: "dtype"
        value {
          type: DT_FLOAT
        }
      }
      attr {
        key: "value"
        value {
          tensor {
            dtype: DT_FLOAT
            tensor_shape {
            }
            float_val: 0.04564354568719864
          }
        }
      }
    }
    node {
      name: "conv3_1/kernel/Initializer/random_uniform/RandomUniform"
      op: "RandomUniform"
      input: "conv3_1/kernel/Initializer/random_uniform/shape"
      attr {
        key: "T"
        value {
          type: DT_INT32
        }
      }
      attr {
        key: "_class"
        value {
          list {
            s: "loc:@conv3_1/kernel"
          }
        }
      }
      attr {
        key: "_output_shapes"
        value {
          list {
            shape {
              dim {
                size: 3
              }
              dim {
                size: 3
              }
              dim {
                size: 64
              }
              dim {
                size: 256
              }
            }
          }
        }
      }
      attr {
        key: "dtype"
        value {
          type: DT_FLOAT
        }
      }
      attr {
        key: "seed"
        value {
          i: 0
        }
      }
      attr {
        key: "seed2"
        value {
          i: 0
        }
      }
    }
    node {
      name: "conv3_1/kernel/Initializer/random_uniform/sub"
      op: "Sub"
      input: "conv3_1/kernel/Initializer/random_uniform/max"
      input: "conv3_1/kernel/Initializer/random_uniform/min"
      attr {
        key: "T"
        value {
          type: DT_FLOAT
        }
      }
      attr {
        key: "_class"
        value {
          list {
            s: "loc:@conv3_1/kernel"
          }
        }
      }
      attr {
        key: "_output_shapes"
        value {
          list {
            shape {
            }
          }
        }
      }
    }
    node {
      name: "conv3_1/kernel/Initializer/random_uniform/mul"
      op: "Mul"
      input: "conv3_1/kernel/Initializer/random_uniform/RandomUniform"
      input: "conv3_1/kernel/Initializer/random_uniform/sub"
      attr {
        key: "T"
        value {
          type: DT_FLOAT
        }
      }
      attr {
        key: "_class"
        value {
          list {
            s: "loc:@conv3_1/kernel"
          }
        }
      }
      attr {
        key: "_output_shapes"
        value {
          list {
            shape {
              dim {
                size: 3
              }
              dim {
                size: 3
              }
              dim {
                size: 64
              }
              dim {
                size: 256
              }
            }
          }
        }
      }
    }
    node {
      name: "conv3_1/kernel/Initializer/random_uniform"
      op: "Add"
      input: "conv3_1/kernel/Initializer/random_uniform/mul"
      input: "conv3_1/kernel/Initializer/random_uniform/min"
      attr {
        key: "T"
        value {
          type: DT_FLOAT
        }
      }
      attr {
        key: "_class"
        value {
          list {
            s: "loc:@conv3_1/kernel"
          }
        }
      }
      attr {
        key: "_output_shapes"
        value {
          list {
            shape {
              dim {
                size: 3
              }
              dim {
                size: 3
              }
              dim {
                size: 64
              }
              dim {
                size: 256
              }
            }
          }
        }
      }
    }
    node {
      name: "conv3_1/kernel"
      op: "VarHandleOp"
      attr {
        key: "_class"
        value {
          list {
            s: "loc:@conv3_1/kernel"
          }
        }
      }
      attr {
        key: "_output_shapes"
        value {
          list {
            shape {
            }
          }
        }
      }
      attr {
        key: "container"
        value {
          s: ""
        }
      }
      attr {
        key: "dtype"
        value {
          type: DT_FLOAT
        }
      }
      attr {
        key: "shape"
        value {
          shape {
            dim {
              size: 3
            }
            dim {
              size: 3
            }
            dim {
              size: 64
            }
            dim {
              size: 256
            }
          }
        }
      }
      attr {
        key: "shared_name"
        value {
          s: "conv3_1/kernel"
        }
      }
    }
    node {
      name: "conv3_1/kernel/IsInitialized/VarIsInitializedOp"
      op: "VarIsInitializedOp"
      input: "conv3_1/kernel"
      attr {
        key: "_output_shapes"
        value {
          list {
            shape {
            }
          }
        }
      }
    }
    node {
      name: "conv3_1/kernel/Assign"
      op: "AssignVariableOp"
      input: "conv3_1/kernel"
      input: "conv3_1/kernel/Initializer/random_uniform"
      attr {
        key: "_class"
        value {
          list {
            s: "loc:@conv3_1/kernel"
          }
        }
      }
      attr {
        key: "dtype"
        value {
          type: DT_FLOAT
        }
      }
    }
    node {
      name: "conv3_1/kernel/Read/ReadVariableOp"
      op: "ReadVariableOp"
      input: "conv3_1/kernel"
      attr {
        key: "_class"
        value {
          list {
            s: "loc:@conv3_1/kernel"
          }
        }
      }
      attr {
        key: "_output_shapes"
        value {
          list {
            shape {
              dim {
                size: 3
              }
              dim {
                size: 3
              }
              dim {
                size: 64
              }
              dim {
                size: 256
              }
            }
          }
        }
      }
      attr {
        key: "dtype"
        value {
          type: DT_FLOAT
        }
      }
    }
    node {
      name: "conv3_1/bias/Initializer/zeros"
      op: "Const"
      attr {
        key: "_class"
        value {
          list {
            s: "loc:@conv3_1/bias"
          }
        }
      }
      attr {
        key: "_output_shapes"
        value {
          list {
            shape {
              dim {
                size: 256
              }
            }
          }
        }
      }
      attr {
        key: "dtype"
        value {
          type: DT_FLOAT
        }
      }
      attr {
        key: "value"
        value {
          tensor {
            dtype: DT_FLOAT
            tensor_shape {
              dim {
                size: 256
              }
            }
            float_val: 0.0
          }
        }
      }
    }
    node {
      name: "conv3_1/bias"
      op: "VarHandleOp"
      attr {
        key: "_class"
        value {
          list {
            s: "loc:@conv3_1/bias"
          }
        }
      }
      attr {
        key: "_output_shapes"
        value {
          list {
            shape {
            }
          }
        }
      }
      attr {
        key: "container"
        value {
          s: ""
        }
      }
      attr {
        key: "dtype"
        value {
          type: DT_FLOAT
        }
      }
      attr {
        key: "shape"
        value {
          shape {
            dim {
              size: 256
            }
          }
        }
      }
      attr {
        key: "shared_name"
        value {
          s: "conv3_1/bias"
        }
      }
    }
    node {
      name: "conv3_1/bias/IsInitialized/VarIsInitializedOp"
      op: "VarIsInitializedOp"
      input: "conv3_1/bias"
      attr {
        key: "_output_shapes"
        value {
          list {
            shape {
            }
          }
        }
      }
    }
    node {
      name: "conv3_1/bias/Assign"
      op: "AssignVariableOp"
      input: "conv3_1/bias"
      input: "conv3_1/bias/Initializer/zeros"
      attr {
        key: "_class"
        value {
          list {
            s: "loc:@conv3_1/bias"
          }
        }
      }
      attr {
        key: "dtype"
        value {
          type: DT_FLOAT
        }
      }
    }
    node {
      name: "conv3_1/bias/Read/ReadVariableOp"
      op: "ReadVariableOp"
      input: "conv3_1/bias"
      attr {
        key: "_class"
        value {
          list {
            s: "loc:@conv3_1/bias"
          }
        }
      }
      attr {
        key: "_output_shapes"
        value {
          list {
            shape {
              dim {
                size: 256
              }
            }
          }
        }
      }
      attr {
        key: "dtype"
        value {
          type: DT_FLOAT
        }
      }
    }
    node {
      name: "conv3_1/dilation_rate"
      op: "Const"
      attr {
        key: "_output_shapes"
        value {
          list {
            shape {
              dim {
                size: 2
              }
            }
          }
        }
      }
      attr {
        key: "dtype"
        value {
          type: DT_INT32
        }
      }
      attr {
        key: "value"
        value {
          tensor {
            dtype: DT_INT32
            tensor_shape {
              dim {
                size: 2
              }
            }
            tensor_content: "\001\000\000\000\001\000\000\000"
          }
        }
      }
    }
    node {
      name: "conv3_1/Conv2D/ReadVariableOp"
      op: "ReadVariableOp"
      input: "conv3_1/kernel"
      attr {
        key: "_output_shapes"
        value {
          list {
            shape {
              dim {
                size: 3
              }
              dim {
                size: 3
              }
              dim {
                size: 64
              }
              dim {
                size: 256
              }
            }
          }
        }
      }
      attr {
        key: "dtype"
        value {
          type: DT_FLOAT
        }
      }
    }
    node {
      name: "conv3_1/Conv2D"
      op: "Conv2D"
      input: "maxpool2_1/MaxPool"
      input: "conv3_1/Conv2D/ReadVariableOp"
      attr {
        key: "T"
        value {
          type: DT_FLOAT
        }
      }
      attr {
        key: "_output_shapes"
        value {
          list {
            shape {
              dim {
                size: -1
              }
              dim {
                size: 14
              }
              dim {
                size: 14
              }
              dim {
                size: 256
              }
            }
          }
        }
      }
      attr {
        key: "data_format"
        value {
          s: "NHWC"
        }
      }
      attr {
        key: "dilations"
        value {
          list {
            i: 1
            i: 1
            i: 1
            i: 1
          }
        }
      }
      attr {
        key: "padding"
        value {
          s: "SAME"
        }
      }
      attr {
        key: "strides"
        value {
          list {
            i: 1
            i: 1
            i: 1
            i: 1
          }
        }
      }
      attr {
        key: "use_cudnn_on_gpu"
        value {
          b: true
        }
      }
    }
    node {
      name: "conv3_1/BiasAdd/ReadVariableOp"
      op: "ReadVariableOp"
      input: "conv3_1/bias"
      attr {
        key: "_output_shapes"
        value {
          list {
            shape {
              dim {
                size: 256
              }
            }
          }
        }
      }
      attr {
        key: "dtype"
        value {
          type: DT_FLOAT
        }
      }
    }
    node {
      name: "conv3_1/BiasAdd"
      op: "BiasAdd"
      input: "conv3_1/Conv2D"
      input: "conv3_1/BiasAdd/ReadVariableOp"
      attr {
        key: "T"
        value {
          type: DT_FLOAT
        }
      }
      attr {
        key: "_output_shapes"
        value {
          list {
            shape {
              dim {
                size: -1
              }
              dim {
                size: 14
              }
              dim {
                size: 14
              }
              dim {
                size: 256
              }
            }
          }
        }
      }
      attr {
        key: "data_format"
        value {
          s: "NHWC"
        }
      }
    }
    node {
      name: "conv3_1/Relu"
      op: "Relu"
      input: "conv3_1/BiasAdd"
      attr {
        key: "T"
        value {
          type: DT_FLOAT
        }
      }
      attr {
        key: "_output_shapes"
        value {
          list {
            shape {
              dim {
                size: -1
              }
              dim {
                size: 14
              }
              dim {
                size: 14
              }
              dim {
                size: 256
              }
            }
          }
        }
      }
    }
    node {
      name: "maxpool3_1/MaxPool"
      op: "MaxPool"
      input: "conv3_1/Relu"
      attr {
        key: "T"
        value {
          type: DT_FLOAT
        }
      }
      attr {
        key: "_output_shapes"
        value {
          list {
            shape {
              dim {
                size: -1
              }
              dim {
                size: 7
              }
              dim {
                size: 7
              }
              dim {
                size: 256
              }
            }
          }
        }
      }
      attr {
        key: "data_format"
        value {
          s: "NHWC"
        }
      }
      attr {
        key: "ksize"
        value {
          list {
            i: 1
            i: 2
            i: 2
            i: 1
          }
        }
      }
      attr {
        key: "padding"
        value {
          s: "VALID"
        }
      }
      attr {
        key: "strides"
        value {
          list {
            i: 1
            i: 2
            i: 2
            i: 1
          }
        }
      }
    }
    node {
      name: "conv3_2/kernel/Initializer/random_uniform/shape"
      op: "Const"
      attr {
        key: "_class"
        value {
          list {
            s: "loc:@conv3_2/kernel"
          }
        }
      }
      attr {
        key: "_output_shapes"
        value {
          list {
            shape {
              dim {
                size: 4
              }
            }
          }
        }
      }
      attr {
        key: "dtype"
        value {
          type: DT_INT32
        }
      }
      attr {
        key: "value"
        value {
          tensor {
            dtype: DT_INT32
            tensor_shape {
              dim {
                size: 4
              }
            }
            tensor_content: "\003\000\000\000\003\000\000\000@\000\000\000\000\001\000\000"
          }
        }
      }
    }
    node {
      name: "conv3_2/kernel/Initializer/random_uniform/min"
      op: "Const"
      attr {
        key: "_class"
        value {
          list {
            s: "loc:@conv3_2/kernel"
          }
        }
      }
      attr {
        key: "_output_shapes"
        value {
          list {
            shape {
            }
          }
        }
      }
      attr {
        key: "dtype"
        value {
          type: DT_FLOAT
        }
      }
      attr {
        key: "value"
        value {
          tensor {
            dtype: DT_FLOAT
            tensor_shape {
            }
            float_val: -0.04564354568719864
          }
        }
      }
    }
    node {
      name: "conv3_2/kernel/Initializer/random_uniform/max"
      op: "Const"
      attr {
        key: "_class"
        value {
          list {
            s: "loc:@conv3_2/kernel"
          }
        }
      }
      attr {
        key: "_output_shapes"
        value {
          list {
            shape {
            }
          }
        }
      }
      attr {
        key: "dtype"
        value {
          type: DT_FLOAT
        }
      }
      attr {
        key: "value"
        value {
          tensor {
            dtype: DT_FLOAT
            tensor_shape {
            }
            float_val: 0.04564354568719864
          }
        }
      }
    }
    node {
      name: "conv3_2/kernel/Initializer/random_uniform/RandomUniform"
      op: "RandomUniform"
      input: "conv3_2/kernel/Initializer/random_uniform/shape"
      attr {
        key: "T"
        value {
          type: DT_INT32
        }
      }
      attr {
        key: "_class"
        value {
          list {
            s: "loc:@conv3_2/kernel"
          }
        }
      }
      attr {
        key: "_output_shapes"
        value {
          list {
            shape {
              dim {
                size: 3
              }
              dim {
                size: 3
              }
              dim {
                size: 64
              }
              dim {
                size: 256
              }
            }
          }
        }
      }
      attr {
        key: "dtype"
        value {
          type: DT_FLOAT
        }
      }
      attr {
        key: "seed"
        value {
          i: 0
        }
      }
      attr {
        key: "seed2"
        value {
          i: 0
        }
      }
    }
    node {
      name: "conv3_2/kernel/Initializer/random_uniform/sub"
      op: "Sub"
      input: "conv3_2/kernel/Initializer/random_uniform/max"
      input: "conv3_2/kernel/Initializer/random_uniform/min"
      attr {
        key: "T"
        value {
          type: DT_FLOAT
        }
      }
      attr {
        key: "_class"
        value {
          list {
            s: "loc:@conv3_2/kernel"
          }
        }
      }
      attr {
        key: "_output_shapes"
        value {
          list {
            shape {
            }
          }
        }
      }
    }
    node {
      name: "conv3_2/kernel/Initializer/random_uniform/mul"
      op: "Mul"
      input: "conv3_2/kernel/Initializer/random_uniform/RandomUniform"
      input: "conv3_2/kernel/Initializer/random_uniform/sub"
      attr {
        key: "T"
        value {
          type: DT_FLOAT
        }
      }
      attr {
        key: "_class"
        value {
          list {
            s: "loc:@conv3_2/kernel"
          }
        }
      }
      attr {
        key: "_output_shapes"
        value {
          list {
            shape {
              dim {
                size: 3
              }
              dim {
                size: 3
              }
              dim {
                size: 64
              }
              dim {
                size: 256
              }
            }
          }
        }
      }
    }
    node {
      name: "conv3_2/kernel/Initializer/random_uniform"
      op: "Add"
      input: "conv3_2/kernel/Initializer/random_uniform/mul"
      input: "conv3_2/kernel/Initializer/random_uniform/min"
      attr {
        key: "T"
        value {
          type: DT_FLOAT
        }
      }
      attr {
        key: "_class"
        value {
          list {
            s: "loc:@conv3_2/kernel"
          }
        }
      }
      attr {
        key: "_output_shapes"
        value {
          list {
            shape {
              dim {
                size: 3
              }
              dim {
                size: 3
              }
              dim {
                size: 64
              }
              dim {
                size: 256
              }
            }
          }
        }
      }
    }
    node {
      name: "conv3_2/kernel"
      op: "VarHandleOp"
      attr {
        key: "_class"
        value {
          list {
            s: "loc:@conv3_2/kernel"
          }
        }
      }
      attr {
        key: "_output_shapes"
        value {
          list {
            shape {
            }
          }
        }
      }
      attr {
        key: "container"
        value {
          s: ""
        }
      }
      attr {
        key: "dtype"
        value {
          type: DT_FLOAT
        }
      }
      attr {
        key: "shape"
        value {
          shape {
            dim {
              size: 3
            }
            dim {
              size: 3
            }
            dim {
              size: 64
            }
            dim {
              size: 256
            }
          }
        }
      }
      attr {
        key: "shared_name"
        value {
          s: "conv3_2/kernel"
        }
      }
    }
    node {
      name: "conv3_2/kernel/IsInitialized/VarIsInitializedOp"
      op: "VarIsInitializedOp"
      input: "conv3_2/kernel"
      attr {
        key: "_output_shapes"
        value {
          list {
            shape {
            }
          }
        }
      }
    }
    node {
      name: "conv3_2/kernel/Assign"
      op: "AssignVariableOp"
      input: "conv3_2/kernel"
      input: "conv3_2/kernel/Initializer/random_uniform"
      attr {
        key: "_class"
        value {
          list {
            s: "loc:@conv3_2/kernel"
          }
        }
      }
      attr {
        key: "dtype"
        value {
          type: DT_FLOAT
        }
      }
    }
    node {
      name: "conv3_2/kernel/Read/ReadVariableOp"
      op: "ReadVariableOp"
      input: "conv3_2/kernel"
      attr {
        key: "_class"
        value {
          list {
            s: "loc:@conv3_2/kernel"
          }
        }
      }
      attr {
        key: "_output_shapes"
        value {
          list {
            shape {
              dim {
                size: 3
              }
              dim {
                size: 3
              }
              dim {
                size: 64
              }
              dim {
                size: 256
              }
            }
          }
        }
      }
      attr {
        key: "dtype"
        value {
          type: DT_FLOAT
        }
      }
    }
    node {
      name: "conv3_2/bias/Initializer/zeros"
      op: "Const"
      attr {
        key: "_class"
        value {
          list {
            s: "loc:@conv3_2/bias"
          }
        }
      }
      attr {
        key: "_output_shapes"
        value {
          list {
            shape {
              dim {
                size: 256
              }
            }
          }
        }
      }
      attr {
        key: "dtype"
        value {
          type: DT_FLOAT
        }
      }
      attr {
        key: "value"
        value {
          tensor {
            dtype: DT_FLOAT
            tensor_shape {
              dim {
                size: 256
              }
            }
            float_val: 0.0
          }
        }
      }
    }
    node {
      name: "conv3_2/bias"
      op: "VarHandleOp"
      attr {
        key: "_class"
        value {
          list {
            s: "loc:@conv3_2/bias"
          }
        }
      }
      attr {
        key: "_output_shapes"
        value {
          list {
            shape {
            }
          }
        }
      }
      attr {
        key: "container"
        value {
          s: ""
        }
      }
      attr {
        key: "dtype"
        value {
          type: DT_FLOAT
        }
      }
      attr {
        key: "shape"
        value {
          shape {
            dim {
              size: 256
            }
          }
        }
      }
      attr {
        key: "shared_name"
        value {
          s: "conv3_2/bias"
        }
      }
    }
    node {
      name: "conv3_2/bias/IsInitialized/VarIsInitializedOp"
      op: "VarIsInitializedOp"
      input: "conv3_2/bias"
      attr {
        key: "_output_shapes"
        value {
          list {
            shape {
            }
          }
        }
      }
    }
    node {
      name: "conv3_2/bias/Assign"
      op: "AssignVariableOp"
      input: "conv3_2/bias"
      input: "conv3_2/bias/Initializer/zeros"
      attr {
        key: "_class"
        value {
          list {
            s: "loc:@conv3_2/bias"
          }
        }
      }
      attr {
        key: "dtype"
        value {
          type: DT_FLOAT
        }
      }
    }
    node {
      name: "conv3_2/bias/Read/ReadVariableOp"
      op: "ReadVariableOp"
      input: "conv3_2/bias"
      attr {
        key: "_class"
        value {
          list {
            s: "loc:@conv3_2/bias"
          }
        }
      }
      attr {
        key: "_output_shapes"
        value {
          list {
            shape {
              dim {
                size: 256
              }
            }
          }
        }
      }
      attr {
        key: "dtype"
        value {
          type: DT_FLOAT
        }
      }
    }
    node {
      name: "conv3_2/dilation_rate"
      op: "Const"
      attr {
        key: "_output_shapes"
        value {
          list {
            shape {
              dim {
                size: 2
              }
            }
          }
        }
      }
      attr {
        key: "dtype"
        value {
          type: DT_INT32
        }
      }
      attr {
        key: "value"
        value {
          tensor {
            dtype: DT_INT32
            tensor_shape {
              dim {
                size: 2
              }
            }
            tensor_content: "\001\000\000\000\001\000\000\000"
          }
        }
      }
    }
    node {
      name: "conv3_2/Conv2D/ReadVariableOp"
      op: "ReadVariableOp"
      input: "conv3_2/kernel"
      attr {
        key: "_output_shapes"
        value {
          list {
            shape {
              dim {
                size: 3
              }
              dim {
                size: 3
              }
              dim {
                size: 64
              }
              dim {
                size: 256
              }
            }
          }
        }
      }
      attr {
        key: "dtype"
        value {
          type: DT_FLOAT
        }
      }
    }
    node {
      name: "conv3_2/Conv2D"
      op: "Conv2D"
      input: "maxpool2_2/MaxPool"
      input: "conv3_2/Conv2D/ReadVariableOp"
      attr {
        key: "T"
        value {
          type: DT_FLOAT
        }
      }
      attr {
        key: "_output_shapes"
        value {
          list {
            shape {
              dim {
                size: -1
              }
              dim {
                size: 14
              }
              dim {
                size: 14
              }
              dim {
                size: 256
              }
            }
          }
        }
      }
      attr {
        key: "data_format"
        value {
          s: "NHWC"
        }
      }
      attr {
        key: "dilations"
        value {
          list {
            i: 1
            i: 1
            i: 1
            i: 1
          }
        }
      }
      attr {
        key: "padding"
        value {
          s: "SAME"
        }
      }
      attr {
        key: "strides"
        value {
          list {
            i: 1
            i: 1
            i: 1
            i: 1
          }
        }
      }
      attr {
        key: "use_cudnn_on_gpu"
        value {
          b: true
        }
      }
    }
    node {
      name: "conv3_2/BiasAdd/ReadVariableOp"
      op: "ReadVariableOp"
      input: "conv3_2/bias"
      attr {
        key: "_output_shapes"
        value {
          list {
            shape {
              dim {
                size: 256
              }
            }
          }
        }
      }
      attr {
        key: "dtype"
        value {
          type: DT_FLOAT
        }
      }
    }
    node {
      name: "conv3_2/BiasAdd"
      op: "BiasAdd"
      input: "conv3_2/Conv2D"
      input: "conv3_2/BiasAdd/ReadVariableOp"
      attr {
        key: "T"
        value {
          type: DT_FLOAT
        }
      }
      attr {
        key: "_output_shapes"
        value {
          list {
            shape {
              dim {
                size: -1
              }
              dim {
                size: 14
              }
              dim {
                size: 14
              }
              dim {
                size: 256
              }
            }
          }
        }
      }
      attr {
        key: "data_format"
        value {
          s: "NHWC"
        }
      }
    }
    node {
      name: "conv3_2/Relu"
      op: "Relu"
      input: "conv3_2/BiasAdd"
      attr {
        key: "T"
        value {
          type: DT_FLOAT
        }
      }
      attr {
        key: "_output_shapes"
        value {
          list {
            shape {
              dim {
                size: -1
              }
              dim {
                size: 14
              }
              dim {
                size: 14
              }
              dim {
                size: 256
              }
            }
          }
        }
      }
    }
    node {
      name: "maxpool3_2/MaxPool"
      op: "MaxPool"
      input: "conv3_2/Relu"
      attr {
        key: "T"
        value {
          type: DT_FLOAT
        }
      }
      attr {
        key: "_output_shapes"
        value {
          list {
            shape {
              dim {
                size: -1
              }
              dim {
                size: 7
              }
              dim {
                size: 7
              }
              dim {
                size: 256
              }
            }
          }
        }
      }
      attr {
        key: "data_format"
        value {
          s: "NHWC"
        }
      }
      attr {
        key: "ksize"
        value {
          list {
            i: 1
            i: 2
            i: 2
            i: 1
          }
        }
      }
      attr {
        key: "padding"
        value {
          s: "VALID"
        }
      }
      attr {
        key: "strides"
        value {
          list {
            i: 1
            i: 2
            i: 2
            i: 1
          }
        }
      }
    }
    node {
      name: "c3/concat/axis"
      op: "Const"
      attr {
        key: "_output_shapes"
        value {
          list {
            shape {
            }
          }
        }
      }
      attr {
        key: "dtype"
        value {
          type: DT_INT32
        }
      }
      attr {
        key: "value"
        value {
          tensor {
            dtype: DT_INT32
            tensor_shape {
            }
            int_val: 3
          }
        }
      }
    }
    node {
      name: "c3/concat"
      op: "ConcatV2"
      input: "maxpool3_1/MaxPool"
      input: "maxpool3_2/MaxPool"
      input: "c3/concat/axis"
      attr {
        key: "N"
        value {
          i: 2
        }
      }
      attr {
        key: "T"
        value {
          type: DT_FLOAT
        }
      }
      attr {
        key: "Tidx"
        value {
          type: DT_INT32
        }
      }
      attr {
        key: "_output_shapes"
        value {
          list {
            shape {
              dim {
                size: -1
              }
              dim {
                size: 7
              }
              dim {
                size: 7
              }
              dim {
                size: 512
              }
            }
          }
        }
      }
    }
    node {
      name: "flatten/Shape"
      op: "Shape"
      input: "c3/concat"
      attr {
        key: "T"
        value {
          type: DT_FLOAT
        }
      }
      attr {
        key: "_output_shapes"
        value {
          list {
            shape {
              dim {
                size: 4
              }
            }
          }
        }
      }
      attr {
        key: "out_type"
        value {
          type: DT_INT32
        }
      }
    }
    node {
      name: "flatten/strided_slice/stack"
      op: "Const"
      attr {
        key: "_output_shapes"
        value {
          list {
            shape {
              dim {
                size: 1
              }
            }
          }
        }
      }
      attr {
        key: "dtype"
        value {
          type: DT_INT32
        }
      }
      attr {
        key: "value"
        value {
          tensor {
            dtype: DT_INT32
            tensor_shape {
              dim {
                size: 1
              }
            }
            int_val: 0
          }
        }
      }
    }
    node {
      name: "flatten/strided_slice/stack_1"
      op: "Const"
      attr {
        key: "_output_shapes"
        value {
          list {
            shape {
              dim {
                size: 1
              }
            }
          }
        }
      }
      attr {
        key: "dtype"
        value {
          type: DT_INT32
        }
      }
      attr {
        key: "value"
        value {
          tensor {
            dtype: DT_INT32
            tensor_shape {
              dim {
                size: 1
              }
            }
            int_val: 1
          }
        }
      }
    }
    node {
      name: "flatten/strided_slice/stack_2"
      op: "Const"
      attr {
        key: "_output_shapes"
        value {
          list {
            shape {
              dim {
                size: 1
              }
            }
          }
        }
      }
      attr {
        key: "dtype"
        value {
          type: DT_INT32
        }
      }
      attr {
        key: "value"
        value {
          tensor {
            dtype: DT_INT32
            tensor_shape {
              dim {
                size: 1
              }
            }
            int_val: 1
          }
        }
      }
    }
    node {
      name: "flatten/strided_slice"
      op: "StridedSlice"
      input: "flatten/Shape"
      input: "flatten/strided_slice/stack"
      input: "flatten/strided_slice/stack_1"
      input: "flatten/strided_slice/stack_2"
      attr {
        key: "Index"
        value {
          type: DT_INT32
        }
      }
      attr {
        key: "T"
        value {
          type: DT_INT32
        }
      }
      attr {
        key: "_output_shapes"
        value {
          list {
            shape {
            }
          }
        }
      }
      attr {
        key: "begin_mask"
        value {
          i: 0
        }
      }
      attr {
        key: "ellipsis_mask"
        value {
          i: 0
        }
      }
      attr {
        key: "end_mask"
        value {
          i: 0
        }
      }
      attr {
        key: "new_axis_mask"
        value {
          i: 0
        }
      }
      attr {
        key: "shrink_axis_mask"
        value {
          i: 1
        }
      }
    }
    node {
      name: "flatten/Reshape/shape/1"
      op: "Const"
      attr {
        key: "_output_shapes"
        value {
          list {
            shape {
            }
          }
        }
      }
      attr {
        key: "dtype"
        value {
          type: DT_INT32
        }
      }
      attr {
        key: "value"
        value {
          tensor {
            dtype: DT_INT32
            tensor_shape {
            }
            int_val: -1
          }
        }
      }
    }
    node {
      name: "flatten/Reshape/shape"
      op: "Pack"
      input: "flatten/strided_slice"
      input: "flatten/Reshape/shape/1"
      attr {
        key: "N"
        value {
          i: 2
        }
      }
      attr {
        key: "T"
        value {
          type: DT_INT32
        }
      }
      attr {
        key: "_output_shapes"
        value {
          list {
            shape {
              dim {
                size: 2
              }
            }
          }
        }
      }
      attr {
        key: "axis"
        value {
          i: 0
        }
      }
    }
    node {
      name: "flatten/Reshape"
      op: "Reshape"
      input: "c3/concat"
      input: "flatten/Reshape/shape"
      attr {
        key: "T"
        value {
          type: DT_FLOAT
        }
      }
      attr {
        key: "Tshape"
        value {
          type: DT_INT32
        }
      }
      attr {
        key: "_output_shapes"
        value {
          list {
            shape {
              dim {
                size: -1
              }
              dim {
                size: 25088
              }
            }
          }
        }
      }
    }
    node {
      name: "fc1/kernel/Initializer/random_uniform/shape"
      op: "Const"
      attr {
        key: "_class"
        value {
          list {
            s: "loc:@fc1/kernel"
          }
        }
      }
      attr {
        key: "_output_shapes"
        value {
          list {
            shape {
              dim {
                size: 2
              }
            }
          }
        }
      }
      attr {
        key: "dtype"
        value {
          type: DT_INT32
        }
      }
      attr {
        key: "value"
        value {
          tensor {
            dtype: DT_INT32
            tensor_shape {
              dim {
                size: 2
              }
            }
            tensor_content: "\000b\000\000\350\003\000\000"
          }
        }
      }
    }
    node {
      name: "fc1/kernel/Initializer/random_uniform/min"
      op: "Const"
      attr {
        key: "_class"
        value {
          list {
            s: "loc:@fc1/kernel"
          }
        }
      }
      attr {
        key: "_output_shapes"
        value {
          list {
            shape {
            }
          }
        }
      }
      attr {
        key: "dtype"
        value {
          type: DT_FLOAT
        }
      }
      attr {
        key: "value"
        value {
          tensor {
            dtype: DT_FLOAT
            tensor_shape {
            }
            float_val: -0.015165447257459164
          }
        }
      }
    }
    node {
      name: "fc1/kernel/Initializer/random_uniform/max"
      op: "Const"
      attr {
        key: "_class"
        value {
          list {
            s: "loc:@fc1/kernel"
          }
        }
      }
      attr {
        key: "_output_shapes"
        value {
          list {
            shape {
            }
          }
        }
      }
      attr {
        key: "dtype"
        value {
          type: DT_FLOAT
        }
      }
      attr {
        key: "value"
        value {
          tensor {
            dtype: DT_FLOAT
            tensor_shape {
            }
            float_val: 0.015165447257459164
          }
        }
      }
    }
    node {
      name: "fc1/kernel/Initializer/random_uniform/RandomUniform"
      op: "RandomUniform"
      input: "fc1/kernel/Initializer/random_uniform/shape"
      attr {
        key: "T"
        value {
          type: DT_INT32
        }
      }
      attr {
        key: "_class"
        value {
          list {
            s: "loc:@fc1/kernel"
          }
        }
      }
      attr {
        key: "_output_shapes"
        value {
          list {
            shape {
              dim {
                size: 25088
              }
              dim {
                size: 1000
              }
            }
          }
        }
      }
      attr {
        key: "dtype"
        value {
          type: DT_FLOAT
        }
      }
      attr {
        key: "seed"
        value {
          i: 0
        }
      }
      attr {
        key: "seed2"
        value {
          i: 0
        }
      }
    }
    node {
      name: "fc1/kernel/Initializer/random_uniform/sub"
      op: "Sub"
      input: "fc1/kernel/Initializer/random_uniform/max"
      input: "fc1/kernel/Initializer/random_uniform/min"
      attr {
        key: "T"
        value {
          type: DT_FLOAT
        }
      }
      attr {
        key: "_class"
        value {
          list {
            s: "loc:@fc1/kernel"
          }
        }
      }
      attr {
        key: "_output_shapes"
        value {
          list {
            shape {
            }
          }
        }
      }
    }
    node {
      name: "fc1/kernel/Initializer/random_uniform/mul"
      op: "Mul"
      input: "fc1/kernel/Initializer/random_uniform/RandomUniform"
      input: "fc1/kernel/Initializer/random_uniform/sub"
      attr {
        key: "T"
        value {
          type: DT_FLOAT
        }
      }
      attr {
        key: "_class"
        value {
          list {
            s: "loc:@fc1/kernel"
          }
        }
      }
      attr {
        key: "_output_shapes"
        value {
          list {
            shape {
              dim {
                size: 25088
              }
              dim {
                size: 1000
              }
            }
          }
        }
      }
    }
    node {
      name: "fc1/kernel/Initializer/random_uniform"
      op: "Add"
      input: "fc1/kernel/Initializer/random_uniform/mul"
      input: "fc1/kernel/Initializer/random_uniform/min"
      attr {
        key: "T"
        value {
          type: DT_FLOAT
        }
      }
      attr {
        key: "_class"
        value {
          list {
            s: "loc:@fc1/kernel"
          }
        }
      }
      attr {
        key: "_output_shapes"
        value {
          list {
            shape {
              dim {
                size: 25088
              }
              dim {
                size: 1000
              }
            }
          }
        }
      }
    }
    node {
      name: "fc1/kernel"
      op: "VarHandleOp"
      attr {
        key: "_class"
        value {
          list {
            s: "loc:@fc1/kernel"
          }
        }
      }
      attr {
        key: "_output_shapes"
        value {
          list {
            shape {
            }
          }
        }
      }
      attr {
        key: "container"
        value {
          s: ""
        }
      }
      attr {
        key: "dtype"
        value {
          type: DT_FLOAT
        }
      }
      attr {
        key: "shape"
        value {
          shape {
            dim {
              size: 25088
            }
            dim {
              size: 1000
            }
          }
        }
      }
      attr {
        key: "shared_name"
        value {
          s: "fc1/kernel"
        }
      }
    }
    node {
      name: "fc1/kernel/IsInitialized/VarIsInitializedOp"
      op: "VarIsInitializedOp"
      input: "fc1/kernel"
      attr {
        key: "_output_shapes"
        value {
          list {
            shape {
            }
          }
        }
      }
    }
    node {
      name: "fc1/kernel/Assign"
      op: "AssignVariableOp"
      input: "fc1/kernel"
      input: "fc1/kernel/Initializer/random_uniform"
      attr {
        key: "_class"
        value {
          list {
            s: "loc:@fc1/kernel"
          }
        }
      }
      attr {
        key: "dtype"
        value {
          type: DT_FLOAT
        }
      }
    }
    node {
      name: "fc1/kernel/Read/ReadVariableOp"
      op: "ReadVariableOp"
      input: "fc1/kernel"
      attr {
        key: "_class"
        value {
          list {
            s: "loc:@fc1/kernel"
          }
        }
      }
      attr {
        key: "_output_shapes"
        value {
          list {
            shape {
              dim {
                size: 25088
              }
              dim {
                size: 1000
              }
            }
          }
        }
      }
      attr {
        key: "dtype"
        value {
          type: DT_FLOAT
        }
      }
    }
    node {
      name: "fc1/bias/Initializer/zeros/shape_as_tensor"
      op: "Const"
      attr {
        key: "_class"
        value {
          list {
            s: "loc:@fc1/bias"
          }
        }
      }
      attr {
        key: "_output_shapes"
        value {
          list {
            shape {
              dim {
                size: 1
              }
            }
          }
        }
      }
      attr {
        key: "dtype"
        value {
          type: DT_INT32
        }
      }
      attr {
        key: "value"
        value {
          tensor {
            dtype: DT_INT32
            tensor_shape {
              dim {
                size: 1
              }
            }
            int_val: 1000
          }
        }
      }
    }
    node {
      name: "fc1/bias/Initializer/zeros/Const"
      op: "Const"
      attr {
        key: "_class"
        value {
          list {
            s: "loc:@fc1/bias"
          }
        }
      }
      attr {
        key: "_output_shapes"
        value {
          list {
            shape {
            }
          }
        }
      }
      attr {
        key: "dtype"
        value {
          type: DT_FLOAT
        }
      }
      attr {
        key: "value"
        value {
          tensor {
            dtype: DT_FLOAT
            tensor_shape {
            }
            float_val: 0.0
          }
        }
      }
    }
    node {
      name: "fc1/bias/Initializer/zeros"
      op: "Fill"
      input: "fc1/bias/Initializer/zeros/shape_as_tensor"
      input: "fc1/bias/Initializer/zeros/Const"
      attr {
        key: "T"
        value {
          type: DT_FLOAT
        }
      }
      attr {
        key: "_class"
        value {
          list {
            s: "loc:@fc1/bias"
          }
        }
      }
      attr {
        key: "_output_shapes"
        value {
          list {
            shape {
              dim {
                size: 1000
              }
            }
          }
        }
      }
      attr {
        key: "index_type"
        value {
          type: DT_INT32
        }
      }
    }
    node {
      name: "fc1/bias"
      op: "VarHandleOp"
      attr {
        key: "_class"
        value {
          list {
            s: "loc:@fc1/bias"
          }
        }
      }
      attr {
        key: "_output_shapes"
        value {
          list {
            shape {
            }
          }
        }
      }
      attr {
        key: "container"
        value {
          s: ""
        }
      }
      attr {
        key: "dtype"
        value {
          type: DT_FLOAT
        }
      }
      attr {
        key: "shape"
        value {
          shape {
            dim {
              size: 1000
            }
          }
        }
      }
      attr {
        key: "shared_name"
        value {
          s: "fc1/bias"
        }
      }
    }
    node {
      name: "fc1/bias/IsInitialized/VarIsInitializedOp"
      op: "VarIsInitializedOp"
      input: "fc1/bias"
      attr {
        key: "_output_shapes"
        value {
          list {
            shape {
            }
          }
        }
      }
    }
    node {
      name: "fc1/bias/Assign"
      op: "AssignVariableOp"
      input: "fc1/bias"
      input: "fc1/bias/Initializer/zeros"
      attr {
        key: "_class"
        value {
          list {
            s: "loc:@fc1/bias"
          }
        }
      }
      attr {
        key: "dtype"
        value {
          type: DT_FLOAT
        }
      }
    }
    node {
      name: "fc1/bias/Read/ReadVariableOp"
      op: "ReadVariableOp"
      input: "fc1/bias"
      attr {
        key: "_class"
        value {
          list {
            s: "loc:@fc1/bias"
          }
        }
      }
      attr {
        key: "_output_shapes"
        value {
          list {
            shape {
              dim {
                size: 1000
              }
            }
          }
        }
      }
      attr {
        key: "dtype"
        value {
          type: DT_FLOAT
        }
      }
    }
    node {
      name: "fc1/MatMul/ReadVariableOp"
      op: "ReadVariableOp"
      input: "fc1/kernel"
      attr {
        key: "_output_shapes"
        value {
          list {
            shape {
              dim {
                size: 25088
              }
              dim {
                size: 1000
              }
            }
          }
        }
      }
      attr {
        key: "dtype"
        value {
          type: DT_FLOAT
        }
      }
    }
    node {
      name: "fc1/MatMul"
      op: "MatMul"
      input: "flatten/Reshape"
      input: "fc1/MatMul/ReadVariableOp"
      attr {
        key: "T"
        value {
          type: DT_FLOAT
        }
      }
      attr {
        key: "_output_shapes"
        value {
          list {
            shape {
              dim {
                size: -1
              }
              dim {
                size: 1000
              }
            }
          }
        }
      }
      attr {
        key: "transpose_a"
        value {
          b: false
        }
      }
      attr {
        key: "transpose_b"
        value {
          b: false
        }
      }
    }
    node {
      name: "fc1/BiasAdd/ReadVariableOp"
      op: "ReadVariableOp"
      input: "fc1/bias"
      attr {
        key: "_output_shapes"
        value {
          list {
            shape {
              dim {
                size: 1000
              }
            }
          }
        }
      }
      attr {
        key: "dtype"
        value {
          type: DT_FLOAT
        }
      }
    }
    node {
      name: "fc1/BiasAdd"
      op: "BiasAdd"
      input: "fc1/MatMul"
      input: "fc1/BiasAdd/ReadVariableOp"
      attr {
        key: "T"
        value {
          type: DT_FLOAT
        }
      }
      attr {
        key: "_output_shapes"
        value {
          list {
            shape {
              dim {
                size: -1
              }
              dim {
                size: 1000
              }
            }
          }
        }
      }
      attr {
        key: "data_format"
        value {
          s: "NHWC"
        }
      }
    }
    node {
      name: "fc1/Relu"
      op: "Relu"
      input: "fc1/BiasAdd"
      attr {
        key: "T"
        value {
          type: DT_FLOAT
        }
      }
      attr {
        key: "_output_shapes"
        value {
          list {
            shape {
              dim {
                size: -1
              }
              dim {
                size: 1000
              }
            }
          }
        }
      }
    }
    node {
      name: "fc2/kernel/Initializer/random_uniform/shape"
      op: "Const"
      attr {
        key: "_class"
        value {
          list {
            s: "loc:@fc2/kernel"
          }
        }
      }
      attr {
        key: "_output_shapes"
        value {
          list {
            shape {
              dim {
                size: 2
              }
            }
          }
        }
      }
      attr {
        key: "dtype"
        value {
          type: DT_INT32
        }
      }
      attr {
        key: "value"
        value {
          tensor {
            dtype: DT_INT32
            tensor_shape {
              dim {
                size: 2
              }
            }
            tensor_content: "\350\003\000\000\364\001\000\000"
          }
        }
      }
    }
    node {
      name: "fc2/kernel/Initializer/random_uniform/min"
      op: "Const"
      attr {
        key: "_class"
        value {
          list {
            s: "loc:@fc2/kernel"
          }
        }
      }
      attr {
        key: "_output_shapes"
        value {
          list {
            shape {
            }
          }
        }
      }
      attr {
        key: "dtype"
        value {
          type: DT_FLOAT
        }
      }
      attr {
        key: "value"
        value {
          tensor {
            dtype: DT_FLOAT
            tensor_shape {
            }
            float_val: -0.06324554979801178
          }
        }
      }
    }
    node {
…
      input: "save/Identity_32"
      attr {
        key: "dtype"
        value {
          type: DT_FLOAT
        }
      }
    }
    node {
      name: "save/Identity_33"
      op: "Identity"
      input: "save/RestoreV2:32"
      attr {
        key: "T"
        value {
          type: DT_FLOAT
        }
      }
      attr {
        key: "_output_shapes"
        value {
          list {
            shape {
              unknown_rank: true
            }
          }
        }
      }
    }
    node {
      name: "save/AssignVariableOp_32"
      op: "AssignVariableOp"
      input: "training/Adadelta/Variable_20"
      input: "save/Identity_33"
      attr {
        key: "dtype"
        value {
          type: DT_FLOAT
        }
      }
    }
    node {
      name: "save/Identity_34"
      op: "Identity"
      input: "save/RestoreV2:33"
      attr {
        key: "T"
        value {
          type: DT_FLOAT
        }
      }
      attr {
        key: "_output_shapes"
        value {
          list {
            shape {
              unknown_rank: true
            }
          }
        }
      }
    }
    node {
      name: "save/AssignVariableOp_33"
      op: "AssignVariableOp"
      input: "training/Adadelta/Variable_21"
      input: "save/Identity_34"
      attr {
        key: "dtype"
        value {
          type: DT_FLOAT
        }
      }
    }
    node {
      name: "save/Identity_35"
      op: "Identity"
      input: "save/RestoreV2:34"
      attr {
        key: "T"
        value {
          type: DT_FLOAT
        }
      }
      attr {
        key: "_output_shapes"
        value {
          list {
            shape {
              unknown_rank: true
            }
          }
        }
      }
    }
    node {
      name: "save/AssignVariableOp_34"
      op: "AssignVariableOp"
      input: "training/Adadelta/Variable_22"
      input: "save/Identity_35"
      attr {
        key: "dtype"
        value {
          type: DT_FLOAT
        }
      }
    }
    node {
      name: "save/Identity_36"
      op: "Identity"
      input: "save/RestoreV2:35"
      attr {
        key: "T"
        value {
          type: DT_FLOAT
        }
      }
      attr {
        key: "_output_shapes"
        value {
          list {
            shape {
              unknown_rank: true
            }
          }
        }
      }
    }
    node {
      name: "save/AssignVariableOp_35"
      op: "AssignVariableOp"
      input: "training/Adadelta/Variable_23"
      input: "save/Identity_36"
      attr {
        key: "dtype"
        value {
          type: DT_FLOAT
        }
      }
    }
    node {
      name: "save/Identity_37"
      op: "Identity"
      input: "save/RestoreV2:36"
      attr {
        key: "T"
        value {
          type: DT_FLOAT
        }
      }
      attr {
        key: "_output_shapes"
        value {
          list {
            shape {
              unknown_rank: true
            }
          }
        }
      }
    }
    node {
      name: "save/AssignVariableOp_36"
      op: "AssignVariableOp"
      input: "training/Adadelta/Variable_24"
      input: "save/Identity_37"
      attr {
        key: "dtype"
        value {
          type: DT_FLOAT
        }
      }
    }
    node {
      name: "save/Identity_38"
      op: "Identity"
      input: "save/RestoreV2:37"
      attr {
        key: "T"
        value {
          type: DT_FLOAT
        }
      }
      attr {
        key: "_output_shapes"
        value {
          list {
            shape {
              unknown_rank: true
            }
          }
        }
      }
    }
    node {
      name: "save/AssignVariableOp_37"
      op: "AssignVariableOp"
      input: "training/Adadelta/Variable_25"
      input: "save/Identity_38"
      attr {
        key: "dtype"
        value {
          type: DT_FLOAT
        }
      }
    }
    node {
      name: "save/Identity_39"
      op: "Identity"
      input: "save/RestoreV2:38"
      attr {
        key: "T"
        value {
          type: DT_FLOAT
        }
      }
      attr {
        key: "_output_shapes"
        value {
          list {
            shape {
              unknown_rank: true
            }
          }
        }
      }
    }
    node {
      name: "save/AssignVariableOp_38"
      op: "AssignVariableOp"
      input: "training/Adadelta/Variable_26"
      input: "save/Identity_39"
      attr {
        key: "dtype"
        value {
          type: DT_FLOAT
        }
      }
    }
    node {
      name: "save/Identity_40"
      op: "Identity"
      input: "save/RestoreV2:39"
      attr {
        key: "T"
        value {
          type: DT_FLOAT
        }
      }
      attr {
        key: "_output_shapes"
        value {
          list {
            shape {
              unknown_rank: true
            }
          }
        }
      }
    }
    node {
      name: "save/AssignVariableOp_39"
      op: "AssignVariableOp"
      input: "training/Adadelta/Variable_27"
      input: "save/Identity_40"
      attr {
        key: "dtype"
        value {
          type: DT_FLOAT
        }
      }
    }
    node {
      name: "save/Identity_41"
      op: "Identity"
      input: "save/RestoreV2:40"
      attr {
        key: "T"
        value {
          type: DT_FLOAT
        }
      }
      attr {
        key: "_output_shapes"
        value {
          list {
            shape {
              unknown_rank: true
            }
          }
        }
      }
    }
    node {
      name: "save/AssignVariableOp_40"
      op: "AssignVariableOp"
      input: "training/Adadelta/Variable_28"
      input: "save/Identity_41"
      attr {
        key: "dtype"
        value {
          type: DT_FLOAT
        }
      }
    }
    node {
      name: "save/Identity_42"
      op: "Identity"
      input: "save/RestoreV2:41"
      attr {
        key: "T"
        value {
          type: DT_FLOAT
        }
      }
      attr {
        key: "_output_shapes"
        value {
          list {
            shape {
              unknown_rank: true
            }
          }
        }
      }
    }
    node {
      name: "save/AssignVariableOp_41"
      op: "AssignVariableOp"
      input: "training/Adadelta/Variable_29"
      input: "save/Identity_42"
      attr {
        key: "dtype"
        value {
          type: DT_FLOAT
        }
      }
    }
    node {
      name: "save/Identity_43"
      op: "Identity"
      input: "save/RestoreV2:42"
      attr {
        key: "T"
        value {
          type: DT_FLOAT
        }
      }
      attr {
        key: "_output_shapes"
        value {
          list {
            shape {
              unknown_rank: true
            }
          }
        }
      }
    }
    node {
      name: "save/AssignVariableOp_42"
      op: "AssignVariableOp"
      input: "training/Adadelta/Variable_3"
      input: "save/Identity_43"
      attr {
        key: "dtype"
        value {
          type: DT_FLOAT
        }
      }
    }
    node {
      name: "save/Identity_44"
      op: "Identity"
      input: "save/RestoreV2:43"
      attr {
        key: "T"
        value {
          type: DT_FLOAT
        }
      }
      attr {
        key: "_output_shapes"
        value {
          list {
            shape {
              unknown_rank: true
            }
          }
        }
      }
    }
    node {
      name: "save/AssignVariableOp_43"
      op: "AssignVariableOp"
      input: "training/Adadelta/Variable_30"
      input: "save/Identity_44"
      attr {
        key: "dtype"
        value {
          type: DT_FLOAT
        }
      }
    }
    node {
      name: "save/Identity_45"
      op: "Identity"
      input: "save/RestoreV2:44"
      attr {
        key: "T"
        value {
          type: DT_FLOAT
        }
      }
      attr {
        key: "_output_shapes"
        value {
          list {
            shape {
              unknown_rank: true
            }
          }
        }
      }
    }
    node {
      name: "save/AssignVariableOp_44"
      op: "AssignVariableOp"
      input: "training/Adadelta/Variable_31"
      input: "save/Identity_45"
      attr {
        key: "dtype"
        value {
          type: DT_FLOAT
        }
      }
    }
    node {
      name: "save/Identity_46"
      op: "Identity"
      input: "save/RestoreV2:45"
      attr {
        key: "T"
        value {
          type: DT_FLOAT
        }
      }
      attr {
        key: "_output_shapes"
        value {
          list {
            shape {
              unknown_rank: true
            }
          }
        }
      }
    }
    node {
      name: "save/AssignVariableOp_45"
      op: "AssignVariableOp"
      input: "training/Adadelta/Variable_4"
      input: "save/Identity_46"
      attr {
        key: "dtype"
        value {
          type: DT_FLOAT
        }
      }
    }
    node {
      name: "save/Identity_47"
      op: "Identity"
      input: "save/RestoreV2:46"
      attr {
        key: "T"
        value {
          type: DT_FLOAT
        }
      }
      attr {
        key: "_output_shapes"
        value {
          list {
            shape {
              unknown_rank: true
            }
          }
        }
      }
    }
    node {
      name: "save/AssignVariableOp_46"
      op: "AssignVariableOp"
      input: "training/Adadelta/Variable_5"
      input: "save/Identity_47"
      attr {
        key: "dtype"
        value {
          type: DT_FLOAT
        }
      }
    }
    node {
      name: "save/Identity_48"
      op: "Identity"
      input: "save/RestoreV2:47"
      attr {
        key: "T"
        value {
          type: DT_FLOAT
        }
      }
      attr {
        key: "_output_shapes"
        value {
          list {
            shape {
              unknown_rank: true
            }
          }
        }
      }
    }
    node {
      name: "save/AssignVariableOp_47"
      op: "AssignVariableOp"
      input: "training/Adadelta/Variable_6"
      input: "save/Identity_48"
      attr {
        key: "dtype"
        value {
          type: DT_FLOAT
        }
      }
    }
    node {
      name: "save/Identity_49"
      op: "Identity"
      input: "save/RestoreV2:48"
      attr {
        key: "T"
        value {
          type: DT_FLOAT
        }
      }
      attr {
        key: "_output_shapes"
        value {
          list {
            shape {
              unknown_rank: true
            }
          }
        }
      }
    }
    node {
      name: "save/AssignVariableOp_48"
      op: "AssignVariableOp"
      input: "training/Adadelta/Variable_7"
      input: "save/Identity_49"
      attr {
        key: "dtype"
        value {
          type: DT_FLOAT
        }
      }
    }
    node {
      name: "save/Identity_50"
      op: "Identity"
      input: "save/RestoreV2:49"
      attr {
        key: "T"
        value {
          type: DT_FLOAT
        }
      }
      attr {
        key: "_output_shapes"
        value {
          list {
            shape {
              unknown_rank: true
            }
          }
        }
      }
    }
    node {
      name: "save/AssignVariableOp_49"
      op: "AssignVariableOp"
      input: "training/Adadelta/Variable_8"
      input: "save/Identity_50"
      attr {
        key: "dtype"
        value {
          type: DT_FLOAT
        }
      }
    }
    node {
      name: "save/Identity_51"
      op: "Identity"
      input: "save/RestoreV2:50"
      attr {
        key: "T"
        value {
          type: DT_FLOAT
        }
      }
      attr {
        key: "_output_shapes"
        value {
          list {
            shape {
              unknown_rank: true
            }
          }
        }
      }
    }
    node {
      name: "save/AssignVariableOp_50"
      op: "AssignVariableOp"
      input: "training/Adadelta/Variable_9"
      input: "save/Identity_51"
      attr {
        key: "dtype"
        value {
          type: DT_FLOAT
        }
      }
    }
    node {
      name: "save/restore_shard"
      op: "NoOp"
      input: "^save/AssignVariableOp"
      input: "^save/AssignVariableOp_1"
      input: "^save/AssignVariableOp_10"
      input: "^save/AssignVariableOp_11"
      input: "^save/AssignVariableOp_12"
      input: "^save/AssignVariableOp_13"
      input: "^save/AssignVariableOp_14"
      input: "^save/AssignVariableOp_15"
      input: "^save/AssignVariableOp_16"
      input: "^save/AssignVariableOp_17"
      input: "^save/AssignVariableOp_18"
      input: "^save/AssignVariableOp_19"
      input: "^save/AssignVariableOp_2"
      input: "^save/AssignVariableOp_20"
      input: "^save/AssignVariableOp_21"
      input: "^save/AssignVariableOp_22"
      input: "^save/AssignVariableOp_23"
      input: "^save/AssignVariableOp_24"
      input: "^save/AssignVariableOp_25"
      input: "^save/AssignVariableOp_26"
      input: "^save/AssignVariableOp_27"
      input: "^save/AssignVariableOp_28"
      input: "^save/AssignVariableOp_29"
      input: "^save/AssignVariableOp_3"
      input: "^save/AssignVariableOp_30"
      input: "^save/AssignVariableOp_31"
      input: "^save/AssignVariableOp_32"
      input: "^save/AssignVariableOp_33"
      input: "^save/AssignVariableOp_34"
      input: "^save/AssignVariableOp_35"
      input: "^save/AssignVariableOp_36"
      input: "^save/AssignVariableOp_37"
      input: "^save/AssignVariableOp_38"
      input: "^save/AssignVariableOp_39"
      input: "^save/AssignVariableOp_4"
      input: "^save/AssignVariableOp_40"
      input: "^save/AssignVariableOp_41"
      input: "^save/AssignVariableOp_42"
      input: "^save/AssignVariableOp_43"
      input: "^save/AssignVariableOp_44"
      input: "^save/AssignVariableOp_45"
      input: "^save/AssignVariableOp_46"
      input: "^save/AssignVariableOp_47"
      input: "^save/AssignVariableOp_48"
      input: "^save/AssignVariableOp_49"
      input: "^save/AssignVariableOp_5"
      input: "^save/AssignVariableOp_50"
      input: "^save/AssignVariableOp_6"
      input: "^save/AssignVariableOp_7"
      input: "^save/AssignVariableOp_8"
      input: "^save/AssignVariableOp_9"
    }
    node {
      name: "save/restore_all"
      op: "NoOp"
      input: "^save/restore_shard"
    }
    versions {
      producer: 27
    }
  }
  saver_def {
    filename_tensor_name: "save/Const:0"
    save_tensor_name: "save/Identity:0"
    restore_op_name: "save/restore_all"
    max_to_keep: 5
    sharded: true
    keep_checkpoint_every_n_hours: 10000.0
    version: V2
  }
  collection_def {
    key: "cond_context"
    value {
      bytes_list {
        value: "\nOloss/dense_loss/broadcast_weights/assert_broadcastable/is_valid_shape/cond_text\022Oloss/dense_loss/broadcast_weights/assert_broadcastable/is_valid_shape/pred_id:0\032Ploss/dense_loss/broadcast_weights/assert_broadcastable/is_valid_shape/switch_t:0 \001*\311\005\nBloss/dense_loss/broadcast_weights/assert_broadcastable/is_scalar:0\nPloss/dense_loss/broadcast_weights/assert_broadcastable/is_valid_shape/Switch_1:0\nPloss/dense_loss/broadcast_weights/assert_broadcastable/is_valid_shape/Switch_1:1\nOloss/dense_loss/broadcast_weights/assert_broadcastable/is_valid_shape/pred_id:0\nPloss/dense_loss/broadcast_weights/assert_broadcastable/is_valid_shape/switch_t:0\022\226\001\nBloss/dense_loss/broadcast_weights/assert_broadcastable/is_scalar:0\022Ploss/dense_loss/broadcast_weights/assert_broadcastable/is_valid_shape/Switch_1:1\022\242\001\nOloss/dense_loss/broadcast_weights/assert_broadcastable/is_valid_shape/pred_id:0\022Oloss/dense_loss/broadcast_weights/assert_broadcastable/is_valid_shape/pred_id:0"
        value: "\nQloss/dense_loss/broadcast_weights/assert_broadcastable/is_valid_shape/cond_text_1\022Oloss/dense_loss/broadcast_weights/assert_broadcastable/is_valid_shape/pred_id:0\032Ploss/dense_loss/broadcast_weights/assert_broadcastable/is_valid_shape/switch_f:0*\344&\ngloss/dense_loss/broadcast_weights/assert_broadcastable/is_valid_shape/has_valid_nonscalar_shape/Merge:0\ngloss/dense_loss/broadcast_weights/assert_broadcastable/is_valid_shape/has_valid_nonscalar_shape/Merge:1\nhloss/dense_loss/broadcast_weights/assert_broadcastable/is_valid_shape/has_valid_nonscalar_shape/Switch:0\nhloss/dense_loss/broadcast_weights/assert_broadcastable/is_valid_shape/has_valid_nonscalar_shape/Switch:1\njloss/dense_loss/broadcast_weights/assert_broadcastable/is_valid_shape/has_valid_nonscalar_shape/Switch_1:0\njloss/dense_loss/broadcast_weights/assert_broadcastable/is_valid_shape/has_valid_nonscalar_shape/Switch_1:1\n\213\001loss/dense_loss/broadcast_weights/assert_broadcastable/is_valid_shape/has_valid_nonscalar_shape/has_invalid_dims/DenseToDenseSetOperation:0\n\213\001loss/dense_loss/broadcast_weights/assert_broadcastable/is_valid_shape/has_valid_nonscalar_shape/has_invalid_dims/DenseToDenseSetOperation:1\n\213\001loss/dense_loss/broadcast_weights/assert_broadcastable/is_valid_shape/has_valid_nonscalar_shape/has_invalid_dims/DenseToDenseSetOperation:2\n\204\001loss/dense_loss/broadcast_weights/assert_broadcastable/is_valid_shape/has_valid_nonscalar_shape/has_invalid_dims/ExpandDims/Switch:0\n\201\001loss/dense_loss/broadcast_weights/assert_broadcastable/is_valid_shape/has_valid_nonscalar_shape/has_invalid_dims/ExpandDims/dim:0\n}loss/dense_loss/broadcast_weights/assert_broadcastable/is_valid_shape/has_valid_nonscalar_shape/has_invalid_dims/ExpandDims:0\n\206\001loss/dense_loss/broadcast_weights/assert_broadcastable/is_valid_shape/has_valid_nonscalar_shape/has_invalid_dims/ExpandDims_1/Switch:0\n\203\001loss/dense_loss/broadcast_weights/assert_broadcastable/is_valid_shape/has_valid_nonscalar_shape/has_invalid_dims/ExpandDims_1/dim:0\n\177loss/dense_loss/broadcast_weights/assert_broadcastable/is_valid_shape/has_valid_nonscalar_shape/has_invalid_dims/ExpandDims_1:0\n~loss/dense_loss/broadcast_weights/assert_broadcastable/is_valid_shape/has_valid_nonscalar_shape/has_invalid_dims/concat/axis:0\nyloss/dense_loss/broadcast_weights/assert_broadcastable/is_valid_shape/has_valid_nonscalar_shape/has_invalid_dims/concat:0\n\203\001loss/dense_loss/broadcast_weights/assert_broadcastable/is_valid_shape/has_valid_nonscalar_shape/has_invalid_dims/num_invalid_dims:0\n\202\001loss/dense_loss/broadcast_weights/assert_broadcastable/is_valid_shape/has_valid_nonscalar_shape/has_invalid_dims/ones_like/Const:0\n\202\001loss/dense_loss/broadcast_weights/assert_broadcastable/is_valid_shape/has_valid_nonscalar_shape/has_invalid_dims/ones_like/Shape:0\n|loss/dense_loss/broadcast_weights/assert_broadcastable/is_valid_shape/has_valid_nonscalar_shape/has_invalid_dims/ones_like:0\ntloss/dense_loss/broadcast_weights/assert_broadcastable/is_valid_shape/has_valid_nonscalar_shape/has_invalid_dims/x:0\nrloss/dense_loss/broadcast_weights/assert_broadcastable/is_valid_shape/has_valid_nonscalar_shape/has_invalid_dims:0\nuloss/dense_loss/broadcast_weights/assert_broadcastable/is_valid_shape/has_valid_nonscalar_shape/is_same_rank/Switch:0\nwloss/dense_loss/broadcast_weights/assert_broadcastable/is_valid_shape/has_valid_nonscalar_shape/is_same_rank/Switch_1:0\nnloss/dense_loss/broadcast_weights/assert_broadcastable/is_valid_shape/has_valid_nonscalar_shape/is_same_rank:0\niloss/dense_loss/broadcast_weights/assert_broadcastable/is_valid_shape/has_valid_nonscalar_shape/pred_id:0\njloss/dense_loss/broadcast_weights/assert_broadcastable/is_valid_shape/has_valid_nonscalar_shape/switch_f:0\njloss/dense_loss/broadcast_weights/assert_broadcastable/is_valid_shape/has_valid_nonscalar_shape/switch_t:0\nOloss/dense_loss/broadcast_weights/assert_broadcastable/is_valid_shape/pred_id:0\nPloss/dense_loss/broadcast_weights/assert_broadcastable/is_valid_shape/switch_f:0\nDloss/dense_loss/broadcast_weights/assert_broadcastable/values/rank:0\nEloss/dense_loss/broadcast_weights/assert_broadcastable/values/shape:0\nEloss/dense_loss/broadcast_weights/assert_broadcastable/weights/rank:0\nFloss/dense_loss/broadcast_weights/assert_broadcastable/weights/shape:0\022\242\001\nOloss/dense_loss/broadcast_weights/assert_broadcastable/is_valid_shape/pred_id:0\022Oloss/dense_loss/broadcast_weights/assert_broadcastable/is_valid_shape/pred_id:0\022\316\001\nEloss/dense_loss/broadcast_weights/assert_broadcastable/values/shape:0\022\204\001loss/dense_loss/broadcast_weights/assert_broadcastable/is_valid_shape/has_valid_nonscalar_shape/has_invalid_dims/ExpandDims/Switch:0\022\300\001\nEloss/dense_loss/broadcast_weights/assert_broadcastable/weights/rank:0\022wloss/dense_loss/broadcast_weights/assert_broadcastable/is_valid_shape/has_valid_nonscalar_shape/is_same_rank/Switch_1:0\022\321\001\nFloss/dense_loss/broadcast_weights/assert_broadcastable/weights/shape:0\022\206\001loss/dense_loss/broadcast_weights/assert_broadcastable/is_valid_shape/has_valid_nonscalar_shape/has_invalid_dims/ExpandDims_1/Switch:0\022\275\001\nDloss/dense_loss/broadcast_weights/assert_broadcastable/values/rank:0\022uloss/dense_loss/broadcast_weights/assert_broadcastable/is_valid_shape/has_valid_nonscalar_shape/is_same_rank/Switch:02\243\"\n\240\"\niloss/dense_loss/broadcast_weights/assert_broadcastable/is_valid_shape/has_valid_nonscalar_shape/cond_text\022iloss/dense_loss/broadcast_weights/assert_broadcastable/is_valid_shape/has_valid_nonscalar_shape/pred_id:0\032jloss/dense_loss/broadcast_weights/assert_broadcastable/is_valid_shape/has_valid_nonscalar_shape/switch_t:0 \001*\331\037\n\213\001loss/dense_loss/broadcast_weights/assert_broadcastable/is_valid_shape/has_valid_nonscalar_shape/has_invalid_dims/DenseToDenseSetOperation:0\n\213\001loss/dense_loss/broadcast_weights/assert_broadcastable/is_valid_shape/has_valid_nonscalar_shape/has_invalid_dims/DenseToDenseSetOperation:1\n\213\001loss/dense_loss/broadcast_weights/assert_broadcastable/is_valid_shape/has_valid_nonscalar_shape/has_invalid_dims/DenseToDenseSetOperation:2\n\204\001loss/dense_loss/broadcast_weights/assert_broadcastable/is_valid_shape/has_valid_nonscalar_shape/has_invalid_dims/ExpandDims/Switch:0\n\206\001loss/dense_loss/broadcast_weights/assert_broadcastable/is_valid_shape/has_valid_nonscalar_shape/has_invalid_dims/ExpandDims/Switch_1:1\n\201\001loss/dense_loss/broadcast_weights/assert_broadcastable/is_valid_shape/has_valid_nonscalar_shape/has_invalid_dims/ExpandDims/dim:0\n}loss/dense_loss/broadcast_weights/assert_broadcastable/is_valid_shape/has_valid_nonscalar_shape/has_invalid_dims/ExpandDims:0\n\206\001loss/dense_loss/broadcast_weights/assert_broadcastable/is_valid_shape/has_valid_nonscalar_shape/has_invalid_dims/ExpandDims_1/Switch:0\n\210\001loss/dense_loss/broadcast_weights/assert_broadcastable/is_valid_shape/has_valid_nonscalar_shape/has_invalid_dims/ExpandDims_1/Switch_1:1\n\203\001loss/dense_loss/broadcast_weights/assert_broadcastable/is_valid_shape/has_valid_nonscalar_shape/has_invalid_dims/ExpandDims_1/dim:0\n\177loss/dense_loss/broadcast_weights/assert_broadcastable/is_valid_shape/has_valid_nonscalar_shape/has_invalid_dims/ExpandDims_1:0\n~loss/dense_loss/broadcast_weights/assert_broadcastable/is_valid_shape/has_valid_nonscalar_shape/has_invalid_dims/concat/axis:0\nyloss/dense_loss/broadcast_weights/assert_broadcastable/is_valid_shape/has_valid_nonscalar_shape/has_invalid_dims/concat:0\n\203\001loss/dense_loss/broadcast_weights/assert_broadcastable/is_valid_shape/has_valid_nonscalar_shape/has_invalid_dims/num_invalid_dims:0\n\202\001loss/dense_loss/broadcast_weights/assert_broadcastable/is_valid_shape/has_valid_nonscalar_shape/has_invalid_dims/ones_like/Const:0\n\202\001loss/dense_loss/broadcast_weights/assert_broadcastable/is_valid_shape/has_valid_nonscalar_shape/has_invalid_dims/ones_like/Shape:0\n|loss/dense_loss/broadcast_weights/assert_broadcastable/is_valid_shape/has_valid_nonscalar_shape/has_invalid_dims/ones_like:0\ntloss/dense_loss/broadcast_weights/assert_broadcastable/is_valid_shape/has_valid_nonscalar_shape/has_invalid_dims/x:0\nrloss/dense_loss/broadcast_weights/assert_broadcastable/is_valid_shape/has_valid_nonscalar_shape/has_invalid_dims:0\niloss/dense_loss/broadcast_weights/assert_broadcastable/is_valid_shape/has_valid_nonscalar_shape/pred_id:0\njloss/dense_loss/broadcast_weights/assert_broadcastable/is_valid_shape/has_valid_nonscalar_shape/switch_t:0\nEloss/dense_loss/broadcast_weights/assert_broadcastable/values/shape:0\nFloss/dense_loss/broadcast_weights/assert_broadcastable/weights/shape:0\022\216\002\n\204\001loss/dense_loss/broadcast_weights/assert_broadcastable/is_valid_shape/has_valid_nonscalar_shape/has_invalid_dims/ExpandDims/Switch:0\022\204\001loss/dense_loss/broadcast_weights/assert_broadcastable/is_valid_shape/has_valid_nonscalar_shape/has_invalid_dims/ExpandDims/Switch:0\022\320\001\nEloss/dense_loss/broadcast_weights/assert_broadcastable/values/shape:0\022\206\001loss/dense_loss/broadcast_weights/assert_broadcastable/is_valid_shape/has_valid_nonscalar_shape/has_invalid_dims/ExpandDims/Switch_1:1\022\323\001\nFloss/dense_loss/broadcast_weights/assert_broadcastable/weights/shape:0\022\210\001loss/dense_loss/broadcast_weights/assert_broadcastable/is_valid_shape/has_valid_nonscalar_shape/has_invalid_dims/ExpandDims_1/Switch_1:1\022\222\002\n\206\001loss/dense_loss/broadcast_weights/assert_broadcastable/is_valid_shape/has_valid_nonscalar_shape/has_invalid_dims/ExpandDims_1/Switch:0\022\206\001loss/dense_loss/broadcast_weights/assert_broadcastable/is_valid_shape/has_valid_nonscalar_shape/has_invalid_dims/ExpandDims_1/Switch:0\022\326\001\niloss/dense_loss/broadcast_weights/assert_broadcastable/is_valid_shape/has_valid_nonscalar_shape/pred_id:0\022iloss/dense_loss/broadcast_weights/assert_broadcastable/is_valid_shape/has_valid_nonscalar_shape/pred_id:02\241\n\n\236\n\nkloss/dense_loss/broadcast_weights/assert_broadcastable/is_valid_shape/has_valid_nonscalar_shape/cond_text_1\022iloss/dense_loss/broadcast_weights/assert_broadcastable/is_valid_shape/has_valid_nonscalar_shape/pred_id:0\032jloss/dense_loss/broadcast_weights/assert_broadcastable/is_valid_shape/has_valid_nonscalar_shape/switch_f:0*\327\007\njloss/dense_loss/broadcast_weights/assert_broadcastable/is_valid_shape/has_valid_nonscalar_shape/Switch_1:0\njloss/dense_loss/broadcast_weights/assert_broadcastable/is_valid_shape/has_valid_nonscalar_shape/Switch_1:1\nnloss/dense_loss/broadcast_weights/assert_broadcastable/is_valid_shape/has_valid_nonscalar_shape/is_same_rank:0\niloss/dense_loss/broadcast_weights/assert_broadcastable/is_valid_shape/has_valid_nonscalar_shape/pred_id:0\njloss/dense_loss/broadcast_weights/assert_broadcastable/is_valid_shape/has_valid_nonscalar_shape/switch_f:0\022\326\001\niloss/dense_loss/broadcast_weights/assert_broadcastable/is_valid_shape/has_valid_nonscalar_shape/pred_id:0\022iloss/dense_loss/broadcast_weights/assert_broadcastable/is_valid_shape/has_valid_nonscalar_shape/pred_id:0\022\334\001\nnloss/dense_loss/broadcast_weights/assert_broadcastable/is_valid_shape/has_valid_nonscalar_shape/is_same_rank:0\022jloss/dense_loss/broadcast_weights/assert_broadcastable/is_valid_shape/has_valid_nonscalar_shape/Switch_1:0"
        value: "\nLloss/dense_loss/broadcast_weights/assert_broadcastable/AssertGuard/cond_text\022Lloss/dense_loss/broadcast_weights/assert_broadcastable/AssertGuard/pred_id:0\032Mloss/dense_loss/broadcast_weights/assert_broadcastable/AssertGuard/switch_t:0 \001*\225\003\nWloss/dense_loss/broadcast_weights/assert_broadcastable/AssertGuard/control_dependency:0\nLloss/dense_loss/broadcast_weights/assert_broadcastable/AssertGuard/pred_id:0\nMloss/dense_loss/broadcast_weights/assert_broadcastable/AssertGuard/switch_t:0\022\234\001\nLloss/dense_loss/broadcast_weights/assert_broadcastable/AssertGuard/pred_id:0\022Lloss/dense_loss/broadcast_weights/assert_broadcastable/AssertGuard/pred_id:0"
        value: "\nNloss/dense_loss/broadcast_weights/assert_broadcastable/AssertGuard/cond_text_1\022Lloss/dense_loss/broadcast_weights/assert_broadcastable/AssertGuard/pred_id:0\032Mloss/dense_loss/broadcast_weights/assert_broadcastable/AssertGuard/switch_f:0*\213\021\nRloss/dense_loss/broadcast_weights/assert_broadcastable/AssertGuard/Assert/Switch:0\nTloss/dense_loss/broadcast_weights/assert_broadcastable/AssertGuard/Assert/Switch_1:0\nTloss/dense_loss/broadcast_weights/assert_broadcastable/AssertGuard/Assert/Switch_2:0\nTloss/dense_loss/broadcast_weights/assert_broadcastable/AssertGuard/Assert/Switch_3:0\nRloss/dense_loss/broadcast_weights/assert_broadcastable/AssertGuard/Assert/data_0:0\nRloss/dense_loss/broadcast_weights/assert_broadcastable/AssertGuard/Assert/data_1:0\nRloss/dense_loss/broadcast_weights/assert_broadcastable/AssertGuard/Assert/data_2:0\nRloss/dense_loss/broadcast_weights/assert_broadcastable/AssertGuard/Assert/data_4:0\nRloss/dense_loss/broadcast_weights/assert_broadcastable/AssertGuard/Assert/data_5:0\nRloss/dense_loss/broadcast_weights/assert_broadcastable/AssertGuard/Assert/data_7:0\nYloss/dense_loss/broadcast_weights/assert_broadcastable/AssertGuard/control_dependency_1:0\nLloss/dense_loss/broadcast_weights/assert_broadcastable/AssertGuard/pred_id:0\nMloss/dense_loss/broadcast_weights/assert_broadcastable/AssertGuard/switch_f:0\nBloss/dense_loss/broadcast_weights/assert_broadcastable/is_scalar:0\nMloss/dense_loss/broadcast_weights/assert_broadcastable/is_valid_shape/Merge:0\nEloss/dense_loss/broadcast_weights/assert_broadcastable/values/shape:0\nFloss/dense_loss/broadcast_weights/assert_broadcastable/weights/shape:0\022\232\001\nBloss/dense_loss/broadcast_weights/assert_broadcastable/is_scalar:0\022Tloss/dense_loss/broadcast_weights/assert_broadcastable/AssertGuard/Assert/Switch_3:0\022\235\001\nEloss/dense_loss/broadcast_weights/assert_broadcastable/values/shape:0\022Tloss/dense_loss/broadcast_weights/assert_broadcastable/AssertGuard/Assert/Switch_2:0\022\243\001\nMloss/dense_loss/broadcast_weights/assert_broadcastable/is_valid_shape/Merge:0\022Rloss/dense_loss/broadcast_weights/assert_broadcastable/AssertGuard/Assert/Switch:0\022\236\001\nFloss/dense_loss/broadcast_weights/assert_broadcastable/weights/shape:0\022Tloss/dense_loss/broadcast_weights/assert_broadcastable/AssertGuard/Assert/Switch_1:0\022\234\001\nLloss/dense_loss/broadcast_weights/assert_broadcastable/AssertGuard/pred_id:0\022Lloss/dense_loss/broadcast_weights/assert_broadcastable/AssertGuard/pred_id:0"
      }
    }
  }
  collection_def {
    key: "trainable_variables"
    value {
      bytes_list {
        value: "\n\016conv1/kernel:0\022\023conv1/kernel/Assign\032\"conv1/kernel/Read/ReadVariableOp:0(\0012)conv1/kernel/Initializer/random_uniform:08\001"
        value: "\n\014conv1/bias:0\022\021conv1/bias/Assign\032 conv1/bias/Read/ReadVariableOp:0(\0012\036conv1/bias/Initializer/zeros:08\001"
        value: "\n\020conv2_1/kernel:0\022\025conv2_1/kernel/Assign\032$conv2_1/kernel/Read/ReadVariableOp:0(\0012+conv2_1/kernel/Initializer/random_uniform:08\001"
        value: "\n\016conv2_1/bias:0\022\023conv2_1/bias/Assign\032\"conv2_1/bias/Read/ReadVariableOp:0(\0012 conv2_1/bias/Initializer/zeros:08\001"
        value: "\n\020conv2_2/kernel:0\022\025conv2_2/kernel/Assign\032$conv2_2/kernel/Read/ReadVariableOp:0(\0012+conv2_2/kernel/Initializer/random_uniform:08\001"
        value: "\n\016conv2_2/bias:0\022\023conv2_2/bias/Assign\032\"conv2_2/bias/Read/ReadVariableOp:0(\0012 conv2_2/bias/Initializer/zeros:08\001"
        value: "\n\020conv3_1/kernel:0\022\025conv3_1/kernel/Assign\032$conv3_1/kernel/Read/ReadVariableOp:0(\0012+conv3_1/kernel/Initializer/random_uniform:08\001"
        value: "\n\016conv3_1/bias:0\022\023conv3_1/bias/Assign\032\"conv3_1/bias/Read/ReadVariableOp:0(\0012 conv3_1/bias/Initializer/zeros:08\001"
        value: "\n\020conv3_2/kernel:0\022\025conv3_2/kernel/Assign\032$conv3_2/kernel/Read/ReadVariableOp:0(\0012+conv3_2/kernel/Initializer/random_uniform:08\001"
        value: "\n\016conv3_2/bias:0\022\023conv3_2/bias/Assign\032\"conv3_2/bias/Read/ReadVariableOp:0(\0012 conv3_2/bias/Initializer/zeros:08\001"
        value: "\n\014fc1/kernel:0\022\021fc1/kernel/Assign\032 fc1/kernel/Read/ReadVariableOp:0(\0012\'fc1/kernel/Initializer/random_uniform:08\001"
        value: "\n\nfc1/bias:0\022\017fc1/bias/Assign\032\036fc1/bias/Read/ReadVariableOp:0(\0012\034fc1/bias/Initializer/zeros:08\001"
        value: "\n\014fc2/kernel:0\022\021fc2/kernel/Assign\032 fc2/kernel/Read/ReadVariableOp:0(\0012\'fc2/kernel/Initializer/random_uniform:08\001"
        value: "\n\nfc2/bias:0\022\017fc2/bias/Assign\032\036fc2/bias/Read/ReadVariableOp:0(\0012\034fc2/bias/Initializer/zeros:08\001"
        value: "\n\016dense/kernel:0\022\023dense/kernel/Assign\032\"dense/kernel/Read/ReadVariableOp:0(\0012)dense/kernel/Initializer/random_uniform:08\001"
        value: "\n\014dense/bias:0\022\021dense/bias/Assign\032 dense/bias/Read/ReadVariableOp:0(\0012\036dense/bias/Initializer/zeros:08\001"
        value: "\n\rAdadelta/lr:0\022\022Adadelta/lr/Assign\032!Adadelta/lr/Read/ReadVariableOp:0(\0012\'Adadelta/lr/Initializer/initial_value:08\001"
        value: "\n\020Adadelta/decay:0\022\025Adadelta/decay/Assign\032$Adadelta/decay/Read/ReadVariableOp:0(\0012*Adadelta/decay/Initializer/initial_value:08\001"
        value: "\n\025Adadelta/iterations:0\022\032Adadelta/iterations/Assign\032)Adadelta/iterations/Read/ReadVariableOp:0(\0012/Adadelta/iterations/Initializer/initial_value:08\001"
        value: "\n\034training/Adadelta/Variable:0\022!training/Adadelta/Variable/Assign\0320training/Adadelta/Variable/Read/ReadVariableOp:0(\0012\031training/Adadelta/zeros:08\001"
        value: "\n\036training/Adadelta/Variable_1:0\022#training/Adadelta/Variable_1/Assign\0322training/Adadelta/Variable_1/Read/ReadVariableOp:0(\0012\033training/Adadelta/zeros_1:08\001"
        value: "\n\036training/Adadelta/Variable_2:0\022#training/Adadelta/Variable_2/Assign\0322training/Adadelta/Variable_2/Read/ReadVariableOp:0(\0012\033training/Adadelta/zeros_2:08\001"
        value: "\n\036training/Adadelta/Variable_3:0\022#training/Adadelta/Variable_3/Assign\0322training/Adadelta/Variable_3/Read/ReadVariableOp:0(\0012\033training/Adadelta/zeros_3:08\001"
        value: "\n\036training/Adadelta/Variable_4:0\022#training/Adadelta/Variable_4/Assign\0322training/Adadelta/Variable_4/Read/ReadVariableOp:0(\0012\033training/Adadelta/zeros_4:08\001"
        value: "\n\036training/Adadelta/Variable_5:0\022#training/Adadelta/Variable_5/Assign\0322training/Adadelta/Variable_5/Read/ReadVariableOp:0(\0012\033training/Adadelta/zeros_5:08\001"
        value: "\n\036training/Adadelta/Variable_6:0\022#training/Adadelta/Variable_6/Assign\0322training/Adadelta/Variable_6/Read/ReadVariableOp:0(\0012\033training/Adadelta/zeros_6:08\001"
        value: "\n\036training/Adadelta/Variable_7:0\022#training/Adadelta/Variable_7/Assign\0322training/Adadelta/Variable_7/Read/ReadVariableOp:0(\0012\033training/Adadelta/zeros_7:08\001"
        value: "\n\036training/Adadelta/Variable_8:0\022#training/Adadelta/Variable_8/Assign\0322training/Adadelta/Variable_8/Read/ReadVariableOp:0(\0012\033training/Adadelta/zeros_8:08\001"
        value: "\n\036training/Adadelta/Variable_9:0\022#training/Adadelta/Variable_9/Assign\0322training/Adadelta/Variable_9/Read/ReadVariableOp:0(\0012\033training/Adadelta/zeros_9:08\001"
        value: "\n\037training/Adadelta/Variable_10:0\022$training/Adadelta/Variable_10/Assign\0323training/Adadelta/Variable_10/Read/ReadVariableOp:0(\0012\034training/Adadelta/zeros_10:08\001"
        value: "\n\037training/Adadelta/Variable_11:0\022$training/Adadelta/Variable_11/Assign\0323training/Adadelta/Variable_11/Read/ReadVariableOp:0(\0012\034training/Adadelta/zeros_11:08\001"
        value: "\n\037training/Adadelta/Variable_12:0\022$training/Adadelta/Variable_12/Assign\0323training/Adadelta/Variable_12/Read/ReadVariableOp:0(\0012\034training/Adadelta/zeros_12:08\001"
        value: "\n\037training/Adadelta/Variable_13:0\022$training/Adadelta/Variable_13/Assign\0323training/Adadelta/Variable_13/Read/ReadVariableOp:0(\0012\034training/Adadelta/zeros_13:08\001"
        value: "\n\037training/Adadelta/Variable_14:0\022$training/Adadelta/Variable_14/Assign\0323training/Adadelta/Variable_14/Read/ReadVariableOp:0(\0012\034training/Adadelta/zeros_14:08\001"
        value: "\n\037training/Adadelta/Variable_15:0\022$training/Adadelta/Variable_15/Assign\0323training/Adadelta/Variable_15/Read/ReadVariableOp:0(\0012\034training/Adadelta/zeros_15:08\001"
        value: "\n\037training/Adadelta/Variable_16:0\022$training/Adadelta/Variable_16/Assign\0323training/Adadelta/Variable_16/Read/ReadVariableOp:0(\0012\034training/Adadelta/zeros_16:08\001"
        value: "\n\037training/Adadelta/Variable_17:0\022$training/Adadelta/Variable_17/Assign\0323training/Adadelta/Variable_17/Read/ReadVariableOp:0(\0012\034training/Adadelta/zeros_17:08\001"
        value: "\n\037training/Adadelta/Variable_18:0\022$training/Adadelta/Variable_18/Assign\0323training/Adadelta/Variable_18/Read/ReadVariableOp:0(\0012\034training/Adadelta/zeros_18:08\001"
        value: "\n\037training/Adadelta/Variable_19:0\022$training/Adadelta/Variable_19/Assign\0323training/Adadelta/Variable_19/Read/ReadVariableOp:0(\0012\034training/Adadelta/zeros_19:08\001"
        value: "\n\037training/Adadelta/Variable_20:0\022$training/Adadelta/Variable_20/Assign\0323training/Adadelta/Variable_20/Read/ReadVariableOp:0(\0012\034training/Adadelta/zeros_20:08\001"
        value: "\n\037training/Adadelta/Variable_21:0\022$training/Adadelta/Variable_21/Assign\0323training/Adadelta/Variable_21/Read/ReadVariableOp:0(\0012\034training/Adadelta/zeros_21:08\001"
        value: "\n\037training/Adadelta/Variable_22:0\022$training/Adadelta/Variable_22/Assign\0323training/Adadelta/Variable_22/Read/ReadVariableOp:0(\0012\034training/Adadelta/zeros_22:08\001"
        value: "\n\037training/Adadelta/Variable_23:0\022$training/Adadelta/Variable_23/Assign\0323training/Adadelta/Variable_23/Read/ReadVariableOp:0(\0012\034training/Adadelta/zeros_23:08\001"
        value: "\n\037training/Adadelta/Variable_24:0\022$training/Adadelta/Variable_24/Assign\0323training/Adadelta/Variable_24/Read/ReadVariableOp:0(\0012\034training/Adadelta/zeros_24:08\001"
        value: "\n\037training/Adadelta/Variable_25:0\022$training/Adadelta/Variable_25/Assign\0323training/Adadelta/Variable_25/Read/ReadVariableOp:0(\0012\034training/Adadelta/zeros_25:08\001"
        value: "\n\037training/Adadelta/Variable_26:0\022$training/Adadelta/Variable_26/Assign\0323training/Adadelta/Variable_26/Read/ReadVariableOp:0(\0012\034training/Adadelta/zeros_26:08\001"
        value: "\n\037training/Adadelta/Variable_27:0\022$training/Adadelta/Variable_27/Assign\0323training/Adadelta/Variable_27/Read/ReadVariableOp:0(\0012\034training/Adadelta/zeros_27:08\001"
        value: "\n\037training/Adadelta/Variable_28:0\022$training/Adadelta/Variable_28/Assign\0323training/Adadelta/Variable_28/Read/ReadVariableOp:0(\0012\034training/Adadelta/zeros_28:08\001"
        value: "\n\037training/Adadelta/Variable_29:0\022$training/Adadelta/Variable_29/Assign\0323training/Adadelta/Variable_29/Read/ReadVariableOp:0(\0012\034training/Adadelta/zeros_29:08\001"
        value: "\n\037training/Adadelta/Variable_30:0\022$training/Adadelta/Variable_30/Assign\0323training/Adadelta/Variable_30/Read/ReadVariableOp:0(\0012\034training/Adadelta/zeros_30:08\001"
        value: "\n\037training/Adadelta/Variable_31:0\022$training/Adadelta/Variable_31/Assign\0323training/Adadelta/Variable_31/Read/ReadVariableOp:0(\0012\034training/Adadelta/zeros_31:08\001"
      }
    }
  }
  collection_def {
    key: "variables"
    value {
      bytes_list {
        value: "\n\016conv1/kernel:0\022\023conv1/kernel/Assign\032\"conv1/kernel/Read/ReadVariableOp:0(\0012)conv1/kernel/Initializer/random_uniform:08\001"
        value: "\n\014conv1/bias:0\022\021conv1/bias/Assign\032 conv1/bias/Read/ReadVariableOp:0(\0012\036conv1/bias/Initializer/zeros:08\001"
        value: "\n\020conv2_1/kernel:0\022\025conv2_1/kernel/Assign\032$conv2_1/kernel/Read/ReadVariableOp:0(\0012+conv2_1/kernel/Initializer/random_uniform:08\001"
        value: "\n\016conv2_1/bias:0\022\023conv2_1/bias/Assign\032\"conv2_1/bias/Read/ReadVariableOp:0(\0012 conv2_1/bias/Initializer/zeros:08\001"
        value: "\n\020conv2_2/kernel:0\022\025conv2_2/kernel/Assign\032$conv2_2/kernel/Read/ReadVariableOp:0(\0012+conv2_2/kernel/Initializer/random_uniform:08\001"
        value: "\n\016conv2_2/bias:0\022\023conv2_2/bias/Assign\032\"conv2_2/bias/Read/ReadVariableOp:0(\0012 conv2_2/bias/Initializer/zeros:08\001"
        value: "\n\020conv3_1/kernel:0\022\025conv3_1/kernel/Assign\032$conv3_1/kernel/Read/ReadVariableOp:0(\0012+conv3_1/kernel/Initializer/random_uniform:08\001"
        value: "\n\016conv3_1/bias:0\022\023conv3_1/bias/Assign\032\"conv3_1/bias/Read/ReadVariableOp:0(\0012 conv3_1/bias/Initializer/zeros:08\001"
        value: "\n\020conv3_2/kernel:0\022\025conv3_2/kernel/Assign\032$conv3_2/kernel/Read/ReadVariableOp:0(\0012+conv3_2/kernel/Initializer/random_uniform:08\001"
        value: "\n\016conv3_2/bias:0\022\023conv3_2/bias/Assign\032\"conv3_2/bias/Read/ReadVariableOp:0(\0012 conv3_2/bias/Initializer/zeros:08\001"
        value: "\n\014fc1/kernel:0\022\021fc1/kernel/Assign\032 fc1/kernel/Read/ReadVariableOp:0(\0012\'fc1/kernel/Initializer/random_uniform:08\001"
        value: "\n\nfc1/bias:0\022\017fc1/bias/Assign\032\036fc1/bias/Read/ReadVariableOp:0(\0012\034fc1/bias/Initializer/zeros:08\001"
        value: "\n\014fc2/kernel:0\022\021fc2/kernel/Assign\032 fc2/kernel/Read/ReadVariableOp:0(\0012\'fc2/kernel/Initializer/random_uniform:08\001"
        value: "\n\nfc2/bias:0\022\017fc2/bias/Assign\032\036fc2/bias/Read/ReadVariableOp:0(\0012\034fc2/bias/Initializer/zeros:08\001"
        value: "\n\016dense/kernel:0\022\023dense/kernel/Assign\032\"dense/kernel/Read/ReadVariableOp:0(\0012)dense/kernel/Initializer/random_uniform:08\001"
        value: "\n\014dense/bias:0\022\021dense/bias/Assign\032 dense/bias/Read/ReadVariableOp:0(\0012\036dense/bias/Initializer/zeros:08\001"
        value: "\n\rAdadelta/lr:0\022\022Adadelta/lr/Assign\032!Adadelta/lr/Read/ReadVariableOp:0(\0012\'Adadelta/lr/Initializer/initial_value:08\001"
        value: "\n\020Adadelta/decay:0\022\025Adadelta/decay/Assign\032$Adadelta/decay/Read/ReadVariableOp:0(\0012*Adadelta/decay/Initializer/initial_value:08\001"
        value: "\n\025Adadelta/iterations:0\022\032Adadelta/iterations/Assign\032)Adadelta/iterations/Read/ReadVariableOp:0(\0012/Adadelta/iterations/Initializer/initial_value:08\001"
        value: "\n\034training/Adadelta/Variable:0\022!training/Adadelta/Variable/Assign\0320training/Adadelta/Variable/Read/ReadVariableOp:0(\0012\031training/Adadelta/zeros:08\001"
        value: "\n\036training/Adadelta/Variable_1:0\022#training/Adadelta/Variable_1/Assign\0322training/Adadelta/Variable_1/Read/ReadVariableOp:0(\0012\033training/Adadelta/zeros_1:08\001"
        value: "\n\036training/Adadelta/Variable_2:0\022#training/Adadelta/Variable_2/Assign\0322training/Adadelta/Variable_2/Read/ReadVariableOp:0(\0012\033training/Adadelta/zeros_2:08\001"
        value: "\n\036training/Adadelta/Variable_3:0\022#training/Adadelta/Variable_3/Assign\0322training/Adadelta/Variable_3/Read/ReadVariableOp:0(\0012\033training/Adadelta/zeros_3:08\001"
        value: "\n\036training/Adadelta/Variable_4:0\022#training/Adadelta/Variable_4/Assign\0322training/Adadelta/Variable_4/Read/ReadVariableOp:0(\0012\033training/Adadelta/zeros_4:08\001"
        value: "\n\036training/Adadelta/Variable_5:0\022#training/Adadelta/Variable_5/Assign\0322training/Adadelta/Variable_5/Read/ReadVariableOp:0(\0012\033training/Adadelta/zeros_5:08\001"
        value: "\n\036training/Adadelta/Variable_6:0\022#training/Adadelta/Variable_6/Assign\0322training/Adadelta/Variable_6/Read/ReadVariableOp:0(\0012\033training/Adadelta/zeros_6:08\001"
        value: "\n\036training/Adadelta/Variable_7:0\022#training/Adadelta/Variable_7/Assign\0322training/Adadelta/Variable_7/Read/ReadVariableOp:0(\0012\033training/Adadelta/zeros_7:08\001"
        value: "\n\036training/Adadelta/Variable_8:0\022#training/Adadelta/Variable_8/Assign\0322training/Adadelta/Variable_8/Read/ReadVariableOp:0(\0012\033training/Adadelta/zeros_8:08\001"
        value: "\n\036training/Adadelta/Variable_9:0\022#training/Adadelta/Variable_9/Assign\0322training/Adadelta/Variable_9/Read/ReadVariableOp:0(\0012\033training/Adadelta/zeros_9:08\001"
        value: "\n\037training/Adadelta/Variable_10:0\022$training/Adadelta/Variable_10/Assign\0323training/Adadelta/Variable_10/Read/ReadVariableOp:0(\0012\034training/Adadelta/zeros_10:08\001"
        value: "\n\037training/Adadelta/Variable_11:0\022$training/Adadelta/Variable_11/Assign\0323training/Adadelta/Variable_11/Read/ReadVariableOp:0(\0012\034training/Adadelta/zeros_11:08\001"
        value: "\n\037training/Adadelta/Variable_12:0\022$training/Adadelta/Variable_12/Assign\0323training/Adadelta/Variable_12/Read/ReadVariableOp:0(\0012\034training/Adadelta/zeros_12:08\001"
        value: "\n\037training/Adadelta/Variable_13:0\022$training/Adadelta/Variable_13/Assign\0323training/Adadelta/Variable_13/Read/ReadVariableOp:0(\0012\034training/Adadelta/zeros_13:08\001"
        value: "\n\037training/Adadelta/Variable_14:0\022$training/Adadelta/Variable_14/Assign\0323training/Adadelta/Variable_14/Read/ReadVariableOp:0(\0012\034training/Adadelta/zeros_14:08\001"
        value: "\n\037training/Adadelta/Variable_15:0\022$training/Adadelta/Variable_15/Assign\0323training/Adadelta/Variable_15/Read/ReadVariableOp:0(\0012\034training/Adadelta/zeros_15:08\001"
        value: "\n\037training/Adadelta/Variable_16:0\022$training/Adadelta/Variable_16/Assign\0323training/Adadelta/Variable_16/Read/ReadVariableOp:0(\0012\034training/Adadelta/zeros_16:08\001"
        value: "\n\037training/Adadelta/Variable_17:0\022$training/Adadelta/Variable_17/Assign\0323training/Adadelta/Variable_17/Read/ReadVariableOp:0(\0012\034training/Adadelta/zeros_17:08\001"
        value: "\n\037training/Adadelta/Variable_18:0\022$training/Adadelta/Variable_18/Assign\0323training/Adadelta/Variable_18/Read/ReadVariableOp:0(\0012\034training/Adadelta/zeros_18:08\001"
        value: "\n\037training/Adadelta/Variable_19:0\022$training/Adadelta/Variable_19/Assign\0323training/Adadelta/Variable_19/Read/ReadVariableOp:0(\0012\034training/Adadelta/zeros_19:08\001"
        value: "\n\037training/Adadelta/Variable_20:0\022$training/Adadelta/Variable_20/Assign\0323training/Adadelta/Variable_20/Read/ReadVariableOp:0(\0012\034training/Adadelta/zeros_20:08\001"
        value: "\n\037training/Adadelta/Variable_21:0\022$training/Adadelta/Variable_21/Assign\0323training/Adadelta/Variable_21/Read/ReadVariableOp:0(\0012\034training/Adadelta/zeros_21:08\001"
        value: "\n\037training/Adadelta/Variable_22:0\022$training/Adadelta/Variable_22/Assign\0323training/Adadelta/Variable_22/Read/ReadVariableOp:0(\0012\034training/Adadelta/zeros_22:08\001"
        value: "\n\037training/Adadelta/Variable_23:0\022$training/Adadelta/Variable_23/Assign\0323training/Adadelta/Variable_23/Read/ReadVariableOp:0(\0012\034training/Adadelta/zeros_23:08\001"
        value: "\n\037training/Adadelta/Variable_24:0\022$training/Adadelta/Variable_24/Assign\0323training/Adadelta/Variable_24/Read/ReadVariableOp:0(\0012\034training/Adadelta/zeros_24:08\001"
        value: "\n\037training/Adadelta/Variable_25:0\022$training/Adadelta/Variable_25/Assign\0323training/Adadelta/Variable_25/Read/ReadVariableOp:0(\0012\034training/Adadelta/zeros_25:08\001"
        value: "\n\037training/Adadelta/Variable_26:0\022$training/Adadelta/Variable_26/Assign\0323training/Adadelta/Variable_26/Read/ReadVariableOp:0(\0012\034training/Adadelta/zeros_26:08\001"
        value: "\n\037training/Adadelta/Variable_27:0\022$training/Adadelta/Variable_27/Assign\0323training/Adadelta/Variable_27/Read/ReadVariableOp:0(\0012\034training/Adadelta/zeros_27:08\001"
        value: "\n\037training/Adadelta/Variable_28:0\022$training/Adadelta/Variable_28/Assign\0323training/Adadelta/Variable_28/Read/ReadVariableOp:0(\0012\034training/Adadelta/zeros_28:08\001"
        value: "\n\037training/Adadelta/Variable_29:0\022$training/Adadelta/Variable_29/Assign\0323training/Adadelta/Variable_29/Read/ReadVariableOp:0(\0012\034training/Adadelta/zeros_29:08\001"
        value: "\n\037training/Adadelta/Variable_30:0\022$training/Adadelta/Variable_30/Assign\0323training/Adadelta/Variable_30/Read/ReadVariableOp:0(\0012\034training/Adadelta/zeros_30:08\001"
        value: "\n\037training/Adadelta/Variable_31:0\022$training/Adadelta/Variable_31/Assign\0323training/Adadelta/Variable_31/Read/ReadVariableOp:0(\0012\034training/Adadelta/zeros_31:08\001"
      }
    }
  }
  signature_def {
    key: "predict_images"
    value {
      inputs {
        key: "height"
        value {
          name: "input_3:0"
          dtype: DT_FLOAT
          tensor_shape {
            dim {
              size: -1
            }
            dim {
              size: 28
            }
          }
        }
      }
      inputs {
        key: "images"
        value {
          name: "input_2:0"
          dtype: DT_FLOAT
          tensor_shape {
            dim {
              size: -1
            }
            dim {
              size: 1
            }
            dim {
              size: 28
            }
            dim {
              size: 28
            }
            dim {
              size: 1
            }
          }
        }
      }
      inputs {
        key: "width"
        value {
          name: "input_4:0"
          dtype: DT_FLOAT
          tensor_shape {
            dim {
              size: -1
            }
            dim {
              size: -1
            }
            dim {
              size: 28
            }
          }
        }
      }
      outputs {
        key: "classification"
        value {
          name: "dense/Softmax:0"
          dtype: DT_FLOAT
          tensor_shape {
            dim {
              size: -1
            }
            dim {
              size: 10
            }
          }
        }
      }
      method_name: "tensorflow/serving/predict"
    }
  }
}
